<?xml version="1.0"?>
<net name="torch-jit-export" version="11">
	<layers>
		<layer id="0" name="actual_input_1" type="Parameter" version="opset1">
			<data shape="1,3,128,128" element_type="f32" />
			<output>
				<port id="0" precision="FP32" names="actual_input_1">
					<dim>1</dim>
					<dim>3</dim>
					<dim>128</dim>
					<dim>128</dim>
				</port>
			</output>
		</layer>
		<layer id="1" name="Multiply_8565_compressed" type="Const" version="opset1">
			<data element_type="f16" shape="16, 3, 3, 3" offset="0" size="864" />
			<output>
				<port id="0" precision="FP16">
					<dim>16</dim>
					<dim>3</dim>
					<dim>3</dim>
					<dim>3</dim>
				</port>
			</output>
		</layer>
		<layer id="2" name="Multiply_8565" type="Convert" version="opset1">
			<data destination_type="f32" />
			<rt_info>
				<attribute name="decompression" version="0" />
			</rt_info>
			<input>
				<port id="0" precision="FP16">
					<dim>16</dim>
					<dim>3</dim>
					<dim>3</dim>
					<dim>3</dim>
				</port>
			</input>
			<output>
				<port id="1" precision="FP32">
					<dim>16</dim>
					<dim>3</dim>
					<dim>3</dim>
					<dim>3</dim>
				</port>
			</output>
		</layer>
		<layer id="3" name="Multiply_8234" type="Convolution" version="opset1">
			<data strides="2, 2" dilations="1, 1" pads_begin="1, 1" pads_end="1, 1" auto_pad="explicit" />
			<input>
				<port id="0" precision="FP32">
					<dim>1</dim>
					<dim>3</dim>
					<dim>128</dim>
					<dim>128</dim>
				</port>
				<port id="1" precision="FP32">
					<dim>16</dim>
					<dim>3</dim>
					<dim>3</dim>
					<dim>3</dim>
				</port>
			</input>
			<output>
				<port id="2" precision="FP32">
					<dim>1</dim>
					<dim>16</dim>
					<dim>64</dim>
					<dim>64</dim>
				</port>
			</output>
		</layer>
		<layer id="4" name="Constant_8239_compressed" type="Const" version="opset1">
			<data element_type="f16" shape="1, 16, 1, 1" offset="864" size="32" />
			<output>
				<port id="0" precision="FP16">
					<dim>1</dim>
					<dim>16</dim>
					<dim>1</dim>
					<dim>1</dim>
				</port>
			</output>
		</layer>
		<layer id="5" name="Constant_8239" type="Convert" version="opset1">
			<data destination_type="f32" />
			<rt_info>
				<attribute name="decompression" version="0" />
			</rt_info>
			<input>
				<port id="0" precision="FP16">
					<dim>1</dim>
					<dim>16</dim>
					<dim>1</dim>
					<dim>1</dim>
				</port>
			</input>
			<output>
				<port id="1" precision="FP32">
					<dim>1</dim>
					<dim>16</dim>
					<dim>1</dim>
					<dim>1</dim>
				</port>
			</output>
		</layer>
		<layer id="6" name="BatchNormalization_1" type="Add" version="opset1">
			<data auto_broadcast="numpy" />
			<input>
				<port id="0" precision="FP32">
					<dim>1</dim>
					<dim>16</dim>
					<dim>64</dim>
					<dim>64</dim>
				</port>
				<port id="1" precision="FP32">
					<dim>1</dim>
					<dim>16</dim>
					<dim>1</dim>
					<dim>1</dim>
				</port>
			</input>
			<output>
				<port id="2" precision="FP32" names="338">
					<dim>1</dim>
					<dim>16</dim>
					<dim>64</dim>
					<dim>64</dim>
				</port>
			</output>
		</layer>
		<layer id="7" name="Mul_7" type="HSwish" version="opset4">
			<input>
				<port id="0" precision="FP32">
					<dim>1</dim>
					<dim>16</dim>
					<dim>64</dim>
					<dim>64</dim>
				</port>
			</input>
			<output>
				<port id="1" precision="FP32" names="344">
					<dim>1</dim>
					<dim>16</dim>
					<dim>64</dim>
					<dim>64</dim>
				</port>
			</output>
		</layer>
		<layer id="8" name="Multiply_8569_compressed" type="Const" version="opset1">
			<data element_type="f16" shape="16, 1, 1, 3, 3" offset="896" size="288" />
			<output>
				<port id="0" precision="FP16">
					<dim>16</dim>
					<dim>1</dim>
					<dim>1</dim>
					<dim>3</dim>
					<dim>3</dim>
				</port>
			</output>
		</layer>
		<layer id="9" name="Multiply_8569" type="Convert" version="opset1">
			<data destination_type="f32" />
			<rt_info>
				<attribute name="decompression" version="0" />
			</rt_info>
			<input>
				<port id="0" precision="FP16">
					<dim>16</dim>
					<dim>1</dim>
					<dim>1</dim>
					<dim>3</dim>
					<dim>3</dim>
				</port>
			</input>
			<output>
				<port id="1" precision="FP32">
					<dim>16</dim>
					<dim>1</dim>
					<dim>1</dim>
					<dim>3</dim>
					<dim>3</dim>
				</port>
			</output>
		</layer>
		<layer id="10" name="Multiply_8241" type="GroupConvolution" version="opset1">
			<data strides="1, 1" pads_begin="1, 1" pads_end="1, 1" dilations="1, 1" auto_pad="explicit" />
			<input>
				<port id="0" precision="FP32">
					<dim>1</dim>
					<dim>16</dim>
					<dim>64</dim>
					<dim>64</dim>
				</port>
				<port id="1" precision="FP32">
					<dim>16</dim>
					<dim>1</dim>
					<dim>1</dim>
					<dim>3</dim>
					<dim>3</dim>
				</port>
			</input>
			<output>
				<port id="2" precision="FP32" names="345">
					<dim>1</dim>
					<dim>16</dim>
					<dim>64</dim>
					<dim>64</dim>
				</port>
			</output>
		</layer>
		<layer id="11" name="Constant_8246_compressed" type="Const" version="opset1">
			<data element_type="f16" shape="1, 16, 1, 1" offset="1184" size="32" />
			<output>
				<port id="0" precision="FP16">
					<dim>1</dim>
					<dim>16</dim>
					<dim>1</dim>
					<dim>1</dim>
				</port>
			</output>
		</layer>
		<layer id="12" name="Constant_8246" type="Convert" version="opset1">
			<data destination_type="f32" />
			<rt_info>
				<attribute name="decompression" version="0" />
			</rt_info>
			<input>
				<port id="0" precision="FP16">
					<dim>1</dim>
					<dim>16</dim>
					<dim>1</dim>
					<dim>1</dim>
				</port>
			</input>
			<output>
				<port id="1" precision="FP32">
					<dim>1</dim>
					<dim>16</dim>
					<dim>1</dim>
					<dim>1</dim>
				</port>
			</output>
		</layer>
		<layer id="13" name="BatchNormalization_9" type="Add" version="opset1">
			<data auto_broadcast="numpy" />
			<input>
				<port id="0" precision="FP32">
					<dim>1</dim>
					<dim>16</dim>
					<dim>64</dim>
					<dim>64</dim>
				</port>
				<port id="1" precision="FP32">
					<dim>1</dim>
					<dim>16</dim>
					<dim>1</dim>
					<dim>1</dim>
				</port>
			</input>
			<output>
				<port id="2" precision="FP32" names="346">
					<dim>1</dim>
					<dim>16</dim>
					<dim>64</dim>
					<dim>64</dim>
				</port>
			</output>
		</layer>
		<layer id="14" name="Relu_10" type="ReLU" version="opset1">
			<input>
				<port id="0" precision="FP32">
					<dim>1</dim>
					<dim>16</dim>
					<dim>64</dim>
					<dim>64</dim>
				</port>
			</input>
			<output>
				<port id="1" precision="FP32" names="347">
					<dim>1</dim>
					<dim>16</dim>
					<dim>64</dim>
					<dim>64</dim>
				</port>
			</output>
		</layer>
		<layer id="15" name="Multiply_8572_compressed" type="Const" version="opset1">
			<data element_type="f16" shape="16, 16, 1, 1" offset="1216" size="512" />
			<output>
				<port id="0" precision="FP16">
					<dim>16</dim>
					<dim>16</dim>
					<dim>1</dim>
					<dim>1</dim>
				</port>
			</output>
		</layer>
		<layer id="16" name="Multiply_8572" type="Convert" version="opset1">
			<data destination_type="f32" />
			<rt_info>
				<attribute name="decompression" version="0" />
			</rt_info>
			<input>
				<port id="0" precision="FP16">
					<dim>16</dim>
					<dim>16</dim>
					<dim>1</dim>
					<dim>1</dim>
				</port>
			</input>
			<output>
				<port id="1" precision="FP32">
					<dim>16</dim>
					<dim>16</dim>
					<dim>1</dim>
					<dim>1</dim>
				</port>
			</output>
		</layer>
		<layer id="17" name="Multiply_8248" type="Convolution" version="opset1">
			<data strides="1, 1" dilations="1, 1" pads_begin="0, 0" pads_end="0, 0" auto_pad="explicit" />
			<input>
				<port id="0" precision="FP32">
					<dim>1</dim>
					<dim>16</dim>
					<dim>64</dim>
					<dim>64</dim>
				</port>
				<port id="1" precision="FP32">
					<dim>16</dim>
					<dim>16</dim>
					<dim>1</dim>
					<dim>1</dim>
				</port>
			</input>
			<output>
				<port id="2" precision="FP32">
					<dim>1</dim>
					<dim>16</dim>
					<dim>64</dim>
					<dim>64</dim>
				</port>
			</output>
		</layer>
		<layer id="18" name="Constant_8253_compressed" type="Const" version="opset1">
			<data element_type="f16" shape="1, 16, 1, 1" offset="1728" size="32" />
			<output>
				<port id="0" precision="FP16">
					<dim>1</dim>
					<dim>16</dim>
					<dim>1</dim>
					<dim>1</dim>
				</port>
			</output>
		</layer>
		<layer id="19" name="Constant_8253" type="Convert" version="opset1">
			<data destination_type="f32" />
			<rt_info>
				<attribute name="decompression" version="0" />
			</rt_info>
			<input>
				<port id="0" precision="FP16">
					<dim>1</dim>
					<dim>16</dim>
					<dim>1</dim>
					<dim>1</dim>
				</port>
			</input>
			<output>
				<port id="1" precision="FP32">
					<dim>1</dim>
					<dim>16</dim>
					<dim>1</dim>
					<dim>1</dim>
				</port>
			</output>
		</layer>
		<layer id="20" name="BatchNormalization_12" type="Add" version="opset1">
			<data auto_broadcast="numpy" />
			<input>
				<port id="0" precision="FP32">
					<dim>1</dim>
					<dim>16</dim>
					<dim>64</dim>
					<dim>64</dim>
				</port>
				<port id="1" precision="FP32">
					<dim>1</dim>
					<dim>16</dim>
					<dim>1</dim>
					<dim>1</dim>
				</port>
			</input>
			<output>
				<port id="2" precision="FP32" names="349">
					<dim>1</dim>
					<dim>16</dim>
					<dim>64</dim>
					<dim>64</dim>
				</port>
			</output>
		</layer>
		<layer id="21" name="Add_13" type="Add" version="opset1">
			<data auto_broadcast="numpy" />
			<input>
				<port id="0" precision="FP32">
					<dim>1</dim>
					<dim>16</dim>
					<dim>64</dim>
					<dim>64</dim>
				</port>
				<port id="1" precision="FP32">
					<dim>1</dim>
					<dim>16</dim>
					<dim>64</dim>
					<dim>64</dim>
				</port>
			</input>
			<output>
				<port id="2" precision="FP32" names="350">
					<dim>1</dim>
					<dim>16</dim>
					<dim>64</dim>
					<dim>64</dim>
				</port>
			</output>
		</layer>
		<layer id="22" name="Multiply_8576_compressed" type="Const" version="opset1">
			<data element_type="f16" shape="64, 16, 1, 1" offset="1760" size="2048" />
			<output>
				<port id="0" precision="FP16">
					<dim>64</dim>
					<dim>16</dim>
					<dim>1</dim>
					<dim>1</dim>
				</port>
			</output>
		</layer>
		<layer id="23" name="Multiply_8576" type="Convert" version="opset1">
			<data destination_type="f32" />
			<rt_info>
				<attribute name="decompression" version="0" />
			</rt_info>
			<input>
				<port id="0" precision="FP16">
					<dim>64</dim>
					<dim>16</dim>
					<dim>1</dim>
					<dim>1</dim>
				</port>
			</input>
			<output>
				<port id="1" precision="FP32">
					<dim>64</dim>
					<dim>16</dim>
					<dim>1</dim>
					<dim>1</dim>
				</port>
			</output>
		</layer>
		<layer id="24" name="Multiply_8255" type="Convolution" version="opset1">
			<data strides="1, 1" dilations="1, 1" pads_begin="0, 0" pads_end="0, 0" auto_pad="explicit" />
			<input>
				<port id="0" precision="FP32">
					<dim>1</dim>
					<dim>16</dim>
					<dim>64</dim>
					<dim>64</dim>
				</port>
				<port id="1" precision="FP32">
					<dim>64</dim>
					<dim>16</dim>
					<dim>1</dim>
					<dim>1</dim>
				</port>
			</input>
			<output>
				<port id="2" precision="FP32">
					<dim>1</dim>
					<dim>64</dim>
					<dim>64</dim>
					<dim>64</dim>
				</port>
			</output>
		</layer>
		<layer id="25" name="Constant_8260_compressed" type="Const" version="opset1">
			<data element_type="f16" shape="1, 64, 1, 1" offset="3808" size="128" />
			<output>
				<port id="0" precision="FP16">
					<dim>1</dim>
					<dim>64</dim>
					<dim>1</dim>
					<dim>1</dim>
				</port>
			</output>
		</layer>
		<layer id="26" name="Constant_8260" type="Convert" version="opset1">
			<data destination_type="f32" />
			<rt_info>
				<attribute name="decompression" version="0" />
			</rt_info>
			<input>
				<port id="0" precision="FP16">
					<dim>1</dim>
					<dim>64</dim>
					<dim>1</dim>
					<dim>1</dim>
				</port>
			</input>
			<output>
				<port id="1" precision="FP32">
					<dim>1</dim>
					<dim>64</dim>
					<dim>1</dim>
					<dim>1</dim>
				</port>
			</output>
		</layer>
		<layer id="27" name="BatchNormalization_15" type="Add" version="opset1">
			<data auto_broadcast="numpy" />
			<input>
				<port id="0" precision="FP32">
					<dim>1</dim>
					<dim>64</dim>
					<dim>64</dim>
					<dim>64</dim>
				</port>
				<port id="1" precision="FP32">
					<dim>1</dim>
					<dim>64</dim>
					<dim>1</dim>
					<dim>1</dim>
				</port>
			</input>
			<output>
				<port id="2" precision="FP32" names="352">
					<dim>1</dim>
					<dim>64</dim>
					<dim>64</dim>
					<dim>64</dim>
				</port>
			</output>
		</layer>
		<layer id="28" name="Relu_16" type="ReLU" version="opset1">
			<input>
				<port id="0" precision="FP32">
					<dim>1</dim>
					<dim>64</dim>
					<dim>64</dim>
					<dim>64</dim>
				</port>
			</input>
			<output>
				<port id="1" precision="FP32" names="353">
					<dim>1</dim>
					<dim>64</dim>
					<dim>64</dim>
					<dim>64</dim>
				</port>
			</output>
		</layer>
		<layer id="29" name="Multiply_8580_compressed" type="Const" version="opset1">
			<data element_type="f16" shape="64, 1, 1, 3, 3" offset="3936" size="1152" />
			<output>
				<port id="0" precision="FP16">
					<dim>64</dim>
					<dim>1</dim>
					<dim>1</dim>
					<dim>3</dim>
					<dim>3</dim>
				</port>
			</output>
		</layer>
		<layer id="30" name="Multiply_8580" type="Convert" version="opset1">
			<data destination_type="f32" />
			<rt_info>
				<attribute name="decompression" version="0" />
			</rt_info>
			<input>
				<port id="0" precision="FP16">
					<dim>64</dim>
					<dim>1</dim>
					<dim>1</dim>
					<dim>3</dim>
					<dim>3</dim>
				</port>
			</input>
			<output>
				<port id="1" precision="FP32">
					<dim>64</dim>
					<dim>1</dim>
					<dim>1</dim>
					<dim>3</dim>
					<dim>3</dim>
				</port>
			</output>
		</layer>
		<layer id="31" name="Multiply_8262" type="GroupConvolution" version="opset1">
			<data strides="2, 2" pads_begin="1, 1" pads_end="1, 1" dilations="1, 1" auto_pad="explicit" />
			<input>
				<port id="0" precision="FP32">
					<dim>1</dim>
					<dim>64</dim>
					<dim>64</dim>
					<dim>64</dim>
				</port>
				<port id="1" precision="FP32">
					<dim>64</dim>
					<dim>1</dim>
					<dim>1</dim>
					<dim>3</dim>
					<dim>3</dim>
				</port>
			</input>
			<output>
				<port id="2" precision="FP32" names="354">
					<dim>1</dim>
					<dim>64</dim>
					<dim>32</dim>
					<dim>32</dim>
				</port>
			</output>
		</layer>
		<layer id="32" name="Constant_8267_compressed" type="Const" version="opset1">
			<data element_type="f16" shape="1, 64, 1, 1" offset="5088" size="128" />
			<output>
				<port id="0" precision="FP16">
					<dim>1</dim>
					<dim>64</dim>
					<dim>1</dim>
					<dim>1</dim>
				</port>
			</output>
		</layer>
		<layer id="33" name="Constant_8267" type="Convert" version="opset1">
			<data destination_type="f32" />
			<rt_info>
				<attribute name="decompression" version="0" />
			</rt_info>
			<input>
				<port id="0" precision="FP16">
					<dim>1</dim>
					<dim>64</dim>
					<dim>1</dim>
					<dim>1</dim>
				</port>
			</input>
			<output>
				<port id="1" precision="FP32">
					<dim>1</dim>
					<dim>64</dim>
					<dim>1</dim>
					<dim>1</dim>
				</port>
			</output>
		</layer>
		<layer id="34" name="BatchNormalization_18" type="Add" version="opset1">
			<data auto_broadcast="numpy" />
			<input>
				<port id="0" precision="FP32">
					<dim>1</dim>
					<dim>64</dim>
					<dim>32</dim>
					<dim>32</dim>
				</port>
				<port id="1" precision="FP32">
					<dim>1</dim>
					<dim>64</dim>
					<dim>1</dim>
					<dim>1</dim>
				</port>
			</input>
			<output>
				<port id="2" precision="FP32" names="355">
					<dim>1</dim>
					<dim>64</dim>
					<dim>32</dim>
					<dim>32</dim>
				</port>
			</output>
		</layer>
		<layer id="35" name="Relu_19" type="ReLU" version="opset1">
			<input>
				<port id="0" precision="FP32">
					<dim>1</dim>
					<dim>64</dim>
					<dim>32</dim>
					<dim>32</dim>
				</port>
			</input>
			<output>
				<port id="1" precision="FP32" names="356">
					<dim>1</dim>
					<dim>64</dim>
					<dim>32</dim>
					<dim>32</dim>
				</port>
			</output>
		</layer>
		<layer id="36" name="Multiply_8583_compressed" type="Const" version="opset1">
			<data element_type="f16" shape="24, 64, 1, 1" offset="5216" size="3072" />
			<output>
				<port id="0" precision="FP16">
					<dim>24</dim>
					<dim>64</dim>
					<dim>1</dim>
					<dim>1</dim>
				</port>
			</output>
		</layer>
		<layer id="37" name="Multiply_8583" type="Convert" version="opset1">
			<data destination_type="f32" />
			<rt_info>
				<attribute name="decompression" version="0" />
			</rt_info>
			<input>
				<port id="0" precision="FP16">
					<dim>24</dim>
					<dim>64</dim>
					<dim>1</dim>
					<dim>1</dim>
				</port>
			</input>
			<output>
				<port id="1" precision="FP32">
					<dim>24</dim>
					<dim>64</dim>
					<dim>1</dim>
					<dim>1</dim>
				</port>
			</output>
		</layer>
		<layer id="38" name="Multiply_8269" type="Convolution" version="opset1">
			<data strides="1, 1" dilations="1, 1" pads_begin="0, 0" pads_end="0, 0" auto_pad="explicit" />
			<input>
				<port id="0" precision="FP32">
					<dim>1</dim>
					<dim>64</dim>
					<dim>32</dim>
					<dim>32</dim>
				</port>
				<port id="1" precision="FP32">
					<dim>24</dim>
					<dim>64</dim>
					<dim>1</dim>
					<dim>1</dim>
				</port>
			</input>
			<output>
				<port id="2" precision="FP32">
					<dim>1</dim>
					<dim>24</dim>
					<dim>32</dim>
					<dim>32</dim>
				</port>
			</output>
		</layer>
		<layer id="39" name="Constant_8274_compressed" type="Const" version="opset1">
			<data element_type="f16" shape="1, 24, 1, 1" offset="8288" size="48" />
			<output>
				<port id="0" precision="FP16">
					<dim>1</dim>
					<dim>24</dim>
					<dim>1</dim>
					<dim>1</dim>
				</port>
			</output>
		</layer>
		<layer id="40" name="Constant_8274" type="Convert" version="opset1">
			<data destination_type="f32" />
			<rt_info>
				<attribute name="decompression" version="0" />
			</rt_info>
			<input>
				<port id="0" precision="FP16">
					<dim>1</dim>
					<dim>24</dim>
					<dim>1</dim>
					<dim>1</dim>
				</port>
			</input>
			<output>
				<port id="1" precision="FP32">
					<dim>1</dim>
					<dim>24</dim>
					<dim>1</dim>
					<dim>1</dim>
				</port>
			</output>
		</layer>
		<layer id="41" name="BatchNormalization_21" type="Add" version="opset1">
			<data auto_broadcast="numpy" />
			<input>
				<port id="0" precision="FP32">
					<dim>1</dim>
					<dim>24</dim>
					<dim>32</dim>
					<dim>32</dim>
				</port>
				<port id="1" precision="FP32">
					<dim>1</dim>
					<dim>24</dim>
					<dim>1</dim>
					<dim>1</dim>
				</port>
			</input>
			<output>
				<port id="2" precision="FP32" names="358">
					<dim>1</dim>
					<dim>24</dim>
					<dim>32</dim>
					<dim>32</dim>
				</port>
			</output>
		</layer>
		<layer id="42" name="Multiply_8587_compressed" type="Const" version="opset1">
			<data element_type="f16" shape="72, 24, 1, 1" offset="8336" size="3456" />
			<output>
				<port id="0" precision="FP16">
					<dim>72</dim>
					<dim>24</dim>
					<dim>1</dim>
					<dim>1</dim>
				</port>
			</output>
		</layer>
		<layer id="43" name="Multiply_8587" type="Convert" version="opset1">
			<data destination_type="f32" />
			<rt_info>
				<attribute name="decompression" version="0" />
			</rt_info>
			<input>
				<port id="0" precision="FP16">
					<dim>72</dim>
					<dim>24</dim>
					<dim>1</dim>
					<dim>1</dim>
				</port>
			</input>
			<output>
				<port id="1" precision="FP32">
					<dim>72</dim>
					<dim>24</dim>
					<dim>1</dim>
					<dim>1</dim>
				</port>
			</output>
		</layer>
		<layer id="44" name="Multiply_8276" type="Convolution" version="opset1">
			<data strides="1, 1" dilations="1, 1" pads_begin="0, 0" pads_end="0, 0" auto_pad="explicit" />
			<input>
				<port id="0" precision="FP32">
					<dim>1</dim>
					<dim>24</dim>
					<dim>32</dim>
					<dim>32</dim>
				</port>
				<port id="1" precision="FP32">
					<dim>72</dim>
					<dim>24</dim>
					<dim>1</dim>
					<dim>1</dim>
				</port>
			</input>
			<output>
				<port id="2" precision="FP32">
					<dim>1</dim>
					<dim>72</dim>
					<dim>32</dim>
					<dim>32</dim>
				</port>
			</output>
		</layer>
		<layer id="45" name="Constant_8281_compressed" type="Const" version="opset1">
			<data element_type="f16" shape="1, 72, 1, 1" offset="11792" size="144" />
			<output>
				<port id="0" precision="FP16">
					<dim>1</dim>
					<dim>72</dim>
					<dim>1</dim>
					<dim>1</dim>
				</port>
			</output>
		</layer>
		<layer id="46" name="Constant_8281" type="Convert" version="opset1">
			<data destination_type="f32" />
			<rt_info>
				<attribute name="decompression" version="0" />
			</rt_info>
			<input>
				<port id="0" precision="FP16">
					<dim>1</dim>
					<dim>72</dim>
					<dim>1</dim>
					<dim>1</dim>
				</port>
			</input>
			<output>
				<port id="1" precision="FP32">
					<dim>1</dim>
					<dim>72</dim>
					<dim>1</dim>
					<dim>1</dim>
				</port>
			</output>
		</layer>
		<layer id="47" name="BatchNormalization_23" type="Add" version="opset1">
			<data auto_broadcast="numpy" />
			<input>
				<port id="0" precision="FP32">
					<dim>1</dim>
					<dim>72</dim>
					<dim>32</dim>
					<dim>32</dim>
				</port>
				<port id="1" precision="FP32">
					<dim>1</dim>
					<dim>72</dim>
					<dim>1</dim>
					<dim>1</dim>
				</port>
			</input>
			<output>
				<port id="2" precision="FP32" names="360">
					<dim>1</dim>
					<dim>72</dim>
					<dim>32</dim>
					<dim>32</dim>
				</port>
			</output>
		</layer>
		<layer id="48" name="Relu_24" type="ReLU" version="opset1">
			<input>
				<port id="0" precision="FP32">
					<dim>1</dim>
					<dim>72</dim>
					<dim>32</dim>
					<dim>32</dim>
				</port>
			</input>
			<output>
				<port id="1" precision="FP32" names="361">
					<dim>1</dim>
					<dim>72</dim>
					<dim>32</dim>
					<dim>32</dim>
				</port>
			</output>
		</layer>
		<layer id="49" name="Multiply_8591_compressed" type="Const" version="opset1">
			<data element_type="f16" shape="72, 1, 1, 3, 3" offset="11936" size="1296" />
			<output>
				<port id="0" precision="FP16">
					<dim>72</dim>
					<dim>1</dim>
					<dim>1</dim>
					<dim>3</dim>
					<dim>3</dim>
				</port>
			</output>
		</layer>
		<layer id="50" name="Multiply_8591" type="Convert" version="opset1">
			<data destination_type="f32" />
			<rt_info>
				<attribute name="decompression" version="0" />
			</rt_info>
			<input>
				<port id="0" precision="FP16">
					<dim>72</dim>
					<dim>1</dim>
					<dim>1</dim>
					<dim>3</dim>
					<dim>3</dim>
				</port>
			</input>
			<output>
				<port id="1" precision="FP32">
					<dim>72</dim>
					<dim>1</dim>
					<dim>1</dim>
					<dim>3</dim>
					<dim>3</dim>
				</port>
			</output>
		</layer>
		<layer id="51" name="Multiply_8283" type="GroupConvolution" version="opset1">
			<data strides="1, 1" pads_begin="1, 1" pads_end="1, 1" dilations="1, 1" auto_pad="explicit" />
			<input>
				<port id="0" precision="FP32">
					<dim>1</dim>
					<dim>72</dim>
					<dim>32</dim>
					<dim>32</dim>
				</port>
				<port id="1" precision="FP32">
					<dim>72</dim>
					<dim>1</dim>
					<dim>1</dim>
					<dim>3</dim>
					<dim>3</dim>
				</port>
			</input>
			<output>
				<port id="2" precision="FP32" names="362">
					<dim>1</dim>
					<dim>72</dim>
					<dim>32</dim>
					<dim>32</dim>
				</port>
			</output>
		</layer>
		<layer id="52" name="Constant_8288_compressed" type="Const" version="opset1">
			<data element_type="f16" shape="1, 72, 1, 1" offset="13232" size="144" />
			<output>
				<port id="0" precision="FP16">
					<dim>1</dim>
					<dim>72</dim>
					<dim>1</dim>
					<dim>1</dim>
				</port>
			</output>
		</layer>
		<layer id="53" name="Constant_8288" type="Convert" version="opset1">
			<data destination_type="f32" />
			<rt_info>
				<attribute name="decompression" version="0" />
			</rt_info>
			<input>
				<port id="0" precision="FP16">
					<dim>1</dim>
					<dim>72</dim>
					<dim>1</dim>
					<dim>1</dim>
				</port>
			</input>
			<output>
				<port id="1" precision="FP32">
					<dim>1</dim>
					<dim>72</dim>
					<dim>1</dim>
					<dim>1</dim>
				</port>
			</output>
		</layer>
		<layer id="54" name="BatchNormalization_26" type="Add" version="opset1">
			<data auto_broadcast="numpy" />
			<input>
				<port id="0" precision="FP32">
					<dim>1</dim>
					<dim>72</dim>
					<dim>32</dim>
					<dim>32</dim>
				</port>
				<port id="1" precision="FP32">
					<dim>1</dim>
					<dim>72</dim>
					<dim>1</dim>
					<dim>1</dim>
				</port>
			</input>
			<output>
				<port id="2" precision="FP32" names="363">
					<dim>1</dim>
					<dim>72</dim>
					<dim>32</dim>
					<dim>32</dim>
				</port>
			</output>
		</layer>
		<layer id="55" name="Relu_27" type="ReLU" version="opset1">
			<input>
				<port id="0" precision="FP32">
					<dim>1</dim>
					<dim>72</dim>
					<dim>32</dim>
					<dim>32</dim>
				</port>
			</input>
			<output>
				<port id="1" precision="FP32" names="364">
					<dim>1</dim>
					<dim>72</dim>
					<dim>32</dim>
					<dim>32</dim>
				</port>
			</output>
		</layer>
		<layer id="56" name="Multiply_8594_compressed" type="Const" version="opset1">
			<data element_type="f16" shape="24, 72, 1, 1" offset="13376" size="3456" />
			<output>
				<port id="0" precision="FP16">
					<dim>24</dim>
					<dim>72</dim>
					<dim>1</dim>
					<dim>1</dim>
				</port>
			</output>
		</layer>
		<layer id="57" name="Multiply_8594" type="Convert" version="opset1">
			<data destination_type="f32" />
			<rt_info>
				<attribute name="decompression" version="0" />
			</rt_info>
			<input>
				<port id="0" precision="FP16">
					<dim>24</dim>
					<dim>72</dim>
					<dim>1</dim>
					<dim>1</dim>
				</port>
			</input>
			<output>
				<port id="1" precision="FP32">
					<dim>24</dim>
					<dim>72</dim>
					<dim>1</dim>
					<dim>1</dim>
				</port>
			</output>
		</layer>
		<layer id="58" name="Multiply_8290" type="Convolution" version="opset1">
			<data strides="1, 1" dilations="1, 1" pads_begin="0, 0" pads_end="0, 0" auto_pad="explicit" />
			<input>
				<port id="0" precision="FP32">
					<dim>1</dim>
					<dim>72</dim>
					<dim>32</dim>
					<dim>32</dim>
				</port>
				<port id="1" precision="FP32">
					<dim>24</dim>
					<dim>72</dim>
					<dim>1</dim>
					<dim>1</dim>
				</port>
			</input>
			<output>
				<port id="2" precision="FP32">
					<dim>1</dim>
					<dim>24</dim>
					<dim>32</dim>
					<dim>32</dim>
				</port>
			</output>
		</layer>
		<layer id="59" name="Constant_8295_compressed" type="Const" version="opset1">
			<data element_type="f16" shape="1, 24, 1, 1" offset="16832" size="48" />
			<output>
				<port id="0" precision="FP16">
					<dim>1</dim>
					<dim>24</dim>
					<dim>1</dim>
					<dim>1</dim>
				</port>
			</output>
		</layer>
		<layer id="60" name="Constant_8295" type="Convert" version="opset1">
			<data destination_type="f32" />
			<rt_info>
				<attribute name="decompression" version="0" />
			</rt_info>
			<input>
				<port id="0" precision="FP16">
					<dim>1</dim>
					<dim>24</dim>
					<dim>1</dim>
					<dim>1</dim>
				</port>
			</input>
			<output>
				<port id="1" precision="FP32">
					<dim>1</dim>
					<dim>24</dim>
					<dim>1</dim>
					<dim>1</dim>
				</port>
			</output>
		</layer>
		<layer id="61" name="BatchNormalization_29" type="Add" version="opset1">
			<data auto_broadcast="numpy" />
			<input>
				<port id="0" precision="FP32">
					<dim>1</dim>
					<dim>24</dim>
					<dim>32</dim>
					<dim>32</dim>
				</port>
				<port id="1" precision="FP32">
					<dim>1</dim>
					<dim>24</dim>
					<dim>1</dim>
					<dim>1</dim>
				</port>
			</input>
			<output>
				<port id="2" precision="FP32" names="366">
					<dim>1</dim>
					<dim>24</dim>
					<dim>32</dim>
					<dim>32</dim>
				</port>
			</output>
		</layer>
		<layer id="62" name="Add_30" type="Add" version="opset1">
			<data auto_broadcast="numpy" />
			<input>
				<port id="0" precision="FP32">
					<dim>1</dim>
					<dim>24</dim>
					<dim>32</dim>
					<dim>32</dim>
				</port>
				<port id="1" precision="FP32">
					<dim>1</dim>
					<dim>24</dim>
					<dim>32</dim>
					<dim>32</dim>
				</port>
			</input>
			<output>
				<port id="2" precision="FP32" names="367">
					<dim>1</dim>
					<dim>24</dim>
					<dim>32</dim>
					<dim>32</dim>
				</port>
			</output>
		</layer>
		<layer id="63" name="Multiply_8598_compressed" type="Const" version="opset1">
			<data element_type="f16" shape="72, 24, 1, 1" offset="16880" size="3456" />
			<output>
				<port id="0" precision="FP16">
					<dim>72</dim>
					<dim>24</dim>
					<dim>1</dim>
					<dim>1</dim>
				</port>
			</output>
		</layer>
		<layer id="64" name="Multiply_8598" type="Convert" version="opset1">
			<data destination_type="f32" />
			<rt_info>
				<attribute name="decompression" version="0" />
			</rt_info>
			<input>
				<port id="0" precision="FP16">
					<dim>72</dim>
					<dim>24</dim>
					<dim>1</dim>
					<dim>1</dim>
				</port>
			</input>
			<output>
				<port id="1" precision="FP32">
					<dim>72</dim>
					<dim>24</dim>
					<dim>1</dim>
					<dim>1</dim>
				</port>
			</output>
		</layer>
		<layer id="65" name="Multiply_8297" type="Convolution" version="opset1">
			<data strides="1, 1" dilations="1, 1" pads_begin="0, 0" pads_end="0, 0" auto_pad="explicit" />
			<input>
				<port id="0" precision="FP32">
					<dim>1</dim>
					<dim>24</dim>
					<dim>32</dim>
					<dim>32</dim>
				</port>
				<port id="1" precision="FP32">
					<dim>72</dim>
					<dim>24</dim>
					<dim>1</dim>
					<dim>1</dim>
				</port>
			</input>
			<output>
				<port id="2" precision="FP32">
					<dim>1</dim>
					<dim>72</dim>
					<dim>32</dim>
					<dim>32</dim>
				</port>
			</output>
		</layer>
		<layer id="66" name="Constant_8302_compressed" type="Const" version="opset1">
			<data element_type="f16" shape="1, 72, 1, 1" offset="20336" size="144" />
			<output>
				<port id="0" precision="FP16">
					<dim>1</dim>
					<dim>72</dim>
					<dim>1</dim>
					<dim>1</dim>
				</port>
			</output>
		</layer>
		<layer id="67" name="Constant_8302" type="Convert" version="opset1">
			<data destination_type="f32" />
			<rt_info>
				<attribute name="decompression" version="0" />
			</rt_info>
			<input>
				<port id="0" precision="FP16">
					<dim>1</dim>
					<dim>72</dim>
					<dim>1</dim>
					<dim>1</dim>
				</port>
			</input>
			<output>
				<port id="1" precision="FP32">
					<dim>1</dim>
					<dim>72</dim>
					<dim>1</dim>
					<dim>1</dim>
				</port>
			</output>
		</layer>
		<layer id="68" name="BatchNormalization_32" type="Add" version="opset1">
			<data auto_broadcast="numpy" />
			<input>
				<port id="0" precision="FP32">
					<dim>1</dim>
					<dim>72</dim>
					<dim>32</dim>
					<dim>32</dim>
				</port>
				<port id="1" precision="FP32">
					<dim>1</dim>
					<dim>72</dim>
					<dim>1</dim>
					<dim>1</dim>
				</port>
			</input>
			<output>
				<port id="2" precision="FP32" names="369">
					<dim>1</dim>
					<dim>72</dim>
					<dim>32</dim>
					<dim>32</dim>
				</port>
			</output>
		</layer>
		<layer id="69" name="Relu_33" type="ReLU" version="opset1">
			<input>
				<port id="0" precision="FP32">
					<dim>1</dim>
					<dim>72</dim>
					<dim>32</dim>
					<dim>32</dim>
				</port>
			</input>
			<output>
				<port id="1" precision="FP32" names="370">
					<dim>1</dim>
					<dim>72</dim>
					<dim>32</dim>
					<dim>32</dim>
				</port>
			</output>
		</layer>
		<layer id="70" name="Multiply_8602_compressed" type="Const" version="opset1">
			<data element_type="f16" shape="72, 1, 1, 5, 5" offset="20480" size="3600" />
			<output>
				<port id="0" precision="FP16">
					<dim>72</dim>
					<dim>1</dim>
					<dim>1</dim>
					<dim>5</dim>
					<dim>5</dim>
				</port>
			</output>
		</layer>
		<layer id="71" name="Multiply_8602" type="Convert" version="opset1">
			<data destination_type="f32" />
			<rt_info>
				<attribute name="decompression" version="0" />
			</rt_info>
			<input>
				<port id="0" precision="FP16">
					<dim>72</dim>
					<dim>1</dim>
					<dim>1</dim>
					<dim>5</dim>
					<dim>5</dim>
				</port>
			</input>
			<output>
				<port id="1" precision="FP32">
					<dim>72</dim>
					<dim>1</dim>
					<dim>1</dim>
					<dim>5</dim>
					<dim>5</dim>
				</port>
			</output>
		</layer>
		<layer id="72" name="Multiply_8304" type="GroupConvolution" version="opset1">
			<data strides="2, 2" pads_begin="2, 2" pads_end="2, 2" dilations="1, 1" auto_pad="explicit" />
			<input>
				<port id="0" precision="FP32">
					<dim>1</dim>
					<dim>72</dim>
					<dim>32</dim>
					<dim>32</dim>
				</port>
				<port id="1" precision="FP32">
					<dim>72</dim>
					<dim>1</dim>
					<dim>1</dim>
					<dim>5</dim>
					<dim>5</dim>
				</port>
			</input>
			<output>
				<port id="2" precision="FP32" names="371">
					<dim>1</dim>
					<dim>72</dim>
					<dim>16</dim>
					<dim>16</dim>
				</port>
			</output>
		</layer>
		<layer id="73" name="Constant_8309_compressed" type="Const" version="opset1">
			<data element_type="f16" shape="1, 72, 1, 1" offset="24080" size="144" />
			<output>
				<port id="0" precision="FP16">
					<dim>1</dim>
					<dim>72</dim>
					<dim>1</dim>
					<dim>1</dim>
				</port>
			</output>
		</layer>
		<layer id="74" name="Constant_8309" type="Convert" version="opset1">
			<data destination_type="f32" />
			<rt_info>
				<attribute name="decompression" version="0" />
			</rt_info>
			<input>
				<port id="0" precision="FP16">
					<dim>1</dim>
					<dim>72</dim>
					<dim>1</dim>
					<dim>1</dim>
				</port>
			</input>
			<output>
				<port id="1" precision="FP32">
					<dim>1</dim>
					<dim>72</dim>
					<dim>1</dim>
					<dim>1</dim>
				</port>
			</output>
		</layer>
		<layer id="75" name="BatchNormalization_35" type="Add" version="opset1">
			<data auto_broadcast="numpy" />
			<input>
				<port id="0" precision="FP32">
					<dim>1</dim>
					<dim>72</dim>
					<dim>16</dim>
					<dim>16</dim>
				</port>
				<port id="1" precision="FP32">
					<dim>1</dim>
					<dim>72</dim>
					<dim>1</dim>
					<dim>1</dim>
				</port>
			</input>
			<output>
				<port id="2" precision="FP32" names="372">
					<dim>1</dim>
					<dim>72</dim>
					<dim>16</dim>
					<dim>16</dim>
				</port>
			</output>
		</layer>
		<layer id="76" name="Range_532" type="Const" version="opset1">
			<data element_type="i64" shape="2" offset="24224" size="16" />
			<output>
				<port id="0" precision="I64">
					<dim>2</dim>
				</port>
			</output>
		</layer>
		<layer id="77" name="GlobalAveragePool_42" type="ReduceMean" version="opset1">
			<data keep_dims="true" />
			<input>
				<port id="0" precision="FP32">
					<dim>1</dim>
					<dim>72</dim>
					<dim>16</dim>
					<dim>16</dim>
				</port>
				<port id="1" precision="I64">
					<dim>2</dim>
				</port>
			</input>
			<output>
				<port id="2" precision="FP32" names="379">
					<dim>1</dim>
					<dim>72</dim>
					<dim>1</dim>
					<dim>1</dim>
				</port>
			</output>
		</layer>
		<layer id="78" name="Concat_2356" type="Const" version="opset1">
			<data element_type="i64" shape="2" offset="24240" size="16" />
			<rt_info>
				<attribute name="precise" version="0" />
			</rt_info>
			<output>
				<port id="0" precision="I64">
					<dim>2</dim>
				</port>
			</output>
		</layer>
		<layer id="79" name="Reshape_46" type="Reshape" version="opset1">
			<data special_zero="true" />
			<input>
				<port id="0" precision="FP32">
					<dim>1</dim>
					<dim>72</dim>
					<dim>1</dim>
					<dim>1</dim>
				</port>
				<port id="1" precision="I64">
					<dim>2</dim>
				</port>
			</input>
			<output>
				<port id="2" precision="FP32" names="383">
					<dim>1</dim>
					<dim>72</dim>
				</port>
			</output>
		</layer>
		<layer id="80" name="features.4.conv.5.fc.0.weight_compressed" type="Const" version="opset1">
			<data element_type="f16" shape="24, 72" offset="24256" size="3456" />
			<output>
				<port id="0" precision="FP16" names="features.4.conv.5.fc.0.weight">
					<dim>24</dim>
					<dim>72</dim>
				</port>
			</output>
		</layer>
		<layer id="81" name="features.4.conv.5.fc.0.weight" type="Convert" version="opset1">
			<data destination_type="f32" />
			<rt_info>
				<attribute name="decompression" version="0" />
			</rt_info>
			<input>
				<port id="0" precision="FP16">
					<dim>24</dim>
					<dim>72</dim>
				</port>
			</input>
			<output>
				<port id="1" precision="FP32">
					<dim>24</dim>
					<dim>72</dim>
				</port>
			</output>
		</layer>
		<layer id="82" name="Gemm_47/WithoutBiases" type="MatMul" version="opset1">
			<data transpose_a="false" transpose_b="true" />
			<input>
				<port id="0" precision="FP32">
					<dim>1</dim>
					<dim>72</dim>
				</port>
				<port id="1" precision="FP32">
					<dim>24</dim>
					<dim>72</dim>
				</port>
			</input>
			<output>
				<port id="2" precision="FP32">
					<dim>1</dim>
					<dim>24</dim>
				</port>
			</output>
		</layer>
		<layer id="83" name="Constant_8920_compressed" type="Const" version="opset1">
			<data element_type="f16" shape="1, 24" offset="27712" size="48" />
			<output>
				<port id="0" precision="FP16">
					<dim>1</dim>
					<dim>24</dim>
				</port>
			</output>
		</layer>
		<layer id="84" name="Constant_8920" type="Convert" version="opset1">
			<data destination_type="f32" />
			<rt_info>
				<attribute name="decompression" version="0" />
			</rt_info>
			<input>
				<port id="0" precision="FP16">
					<dim>1</dim>
					<dim>24</dim>
				</port>
			</input>
			<output>
				<port id="1" precision="FP32">
					<dim>1</dim>
					<dim>24</dim>
				</port>
			</output>
		</layer>
		<layer id="85" name="Gemm_47" type="Add" version="opset1">
			<data auto_broadcast="numpy" />
			<input>
				<port id="0" precision="FP32">
					<dim>1</dim>
					<dim>24</dim>
				</port>
				<port id="1" precision="FP32">
					<dim>1</dim>
					<dim>24</dim>
				</port>
			</input>
			<output>
				<port id="2" precision="FP32" names="384">
					<dim>1</dim>
					<dim>24</dim>
				</port>
			</output>
		</layer>
		<layer id="86" name="Relu_48" type="ReLU" version="opset1">
			<input>
				<port id="0" precision="FP32">
					<dim>1</dim>
					<dim>24</dim>
				</port>
			</input>
			<output>
				<port id="1" precision="FP32" names="385">
					<dim>1</dim>
					<dim>24</dim>
				</port>
			</output>
		</layer>
		<layer id="87" name="features.4.conv.5.fc.2.weight_compressed" type="Const" version="opset1">
			<data element_type="f16" shape="72, 24" offset="27760" size="3456" />
			<output>
				<port id="0" precision="FP16" names="features.4.conv.5.fc.2.weight">
					<dim>72</dim>
					<dim>24</dim>
				</port>
			</output>
		</layer>
		<layer id="88" name="features.4.conv.5.fc.2.weight" type="Convert" version="opset1">
			<data destination_type="f32" />
			<rt_info>
				<attribute name="decompression" version="0" />
			</rt_info>
			<input>
				<port id="0" precision="FP16">
					<dim>72</dim>
					<dim>24</dim>
				</port>
			</input>
			<output>
				<port id="1" precision="FP32">
					<dim>72</dim>
					<dim>24</dim>
				</port>
			</output>
		</layer>
		<layer id="89" name="Gemm_49/WithoutBiases" type="MatMul" version="opset1">
			<data transpose_a="false" transpose_b="true" />
			<input>
				<port id="0" precision="FP32">
					<dim>1</dim>
					<dim>24</dim>
				</port>
				<port id="1" precision="FP32">
					<dim>72</dim>
					<dim>24</dim>
				</port>
			</input>
			<output>
				<port id="2" precision="FP32">
					<dim>1</dim>
					<dim>72</dim>
				</port>
			</output>
		</layer>
		<layer id="90" name="Constant_8921_compressed" type="Const" version="opset1">
			<data element_type="f16" shape="1, 72" offset="31216" size="144" />
			<output>
				<port id="0" precision="FP16">
					<dim>1</dim>
					<dim>72</dim>
				</port>
			</output>
		</layer>
		<layer id="91" name="Constant_8921" type="Convert" version="opset1">
			<data destination_type="f32" />
			<rt_info>
				<attribute name="decompression" version="0" />
			</rt_info>
			<input>
				<port id="0" precision="FP16">
					<dim>1</dim>
					<dim>72</dim>
				</port>
			</input>
			<output>
				<port id="1" precision="FP32">
					<dim>1</dim>
					<dim>72</dim>
				</port>
			</output>
		</layer>
		<layer id="92" name="Gemm_49" type="Add" version="opset1">
			<data auto_broadcast="numpy" />
			<input>
				<port id="0" precision="FP32">
					<dim>1</dim>
					<dim>72</dim>
				</port>
				<port id="1" precision="FP32">
					<dim>1</dim>
					<dim>72</dim>
				</port>
			</input>
			<output>
				<port id="2" precision="FP32" names="386">
					<dim>1</dim>
					<dim>72</dim>
				</port>
			</output>
		</layer>
		<layer id="93" name="Div_54" type="HSigmoid" version="opset5">
			<input>
				<port id="0" precision="FP32">
					<dim>1</dim>
					<dim>72</dim>
				</port>
			</input>
			<output>
				<port id="1" precision="FP32" names="391">
					<dim>1</dim>
					<dim>72</dim>
				</port>
			</output>
		</layer>
		<layer id="94" name="Constant_9029" type="Const" version="opset1">
			<data element_type="i64" shape="4" offset="31360" size="32" />
			<rt_info>
				<attribute name="precise" version="0" />
			</rt_info>
			<output>
				<port id="0" precision="I64">
					<dim>4</dim>
				</port>
			</output>
		</layer>
		<layer id="95" name="Reshape_58" type="Reshape" version="opset1">
			<data special_zero="true" />
			<input>
				<port id="0" precision="FP32">
					<dim>1</dim>
					<dim>72</dim>
				</port>
				<port id="1" precision="I64">
					<dim>4</dim>
				</port>
			</input>
			<output>
				<port id="2" precision="FP32" names="399">
					<dim>1</dim>
					<dim>72</dim>
					<dim>1</dim>
					<dim>1</dim>
				</port>
			</output>
		</layer>
		<layer id="96" name="Mul_59" type="Multiply" version="opset1">
			<data auto_broadcast="numpy" />
			<input>
				<port id="0" precision="FP32">
					<dim>1</dim>
					<dim>72</dim>
					<dim>16</dim>
					<dim>16</dim>
				</port>
				<port id="1" precision="FP32">
					<dim>1</dim>
					<dim>72</dim>
					<dim>1</dim>
					<dim>1</dim>
				</port>
			</input>
			<output>
				<port id="2" precision="FP32" names="400">
					<dim>1</dim>
					<dim>72</dim>
					<dim>16</dim>
					<dim>16</dim>
				</port>
			</output>
		</layer>
		<layer id="97" name="Relu_60" type="ReLU" version="opset1">
			<input>
				<port id="0" precision="FP32">
					<dim>1</dim>
					<dim>72</dim>
					<dim>16</dim>
					<dim>16</dim>
				</port>
			</input>
			<output>
				<port id="1" precision="FP32" names="401">
					<dim>1</dim>
					<dim>72</dim>
					<dim>16</dim>
					<dim>16</dim>
				</port>
			</output>
		</layer>
		<layer id="98" name="Multiply_8605_compressed" type="Const" version="opset1">
			<data element_type="f16" shape="40, 72, 1, 1" offset="31392" size="5760" />
			<output>
				<port id="0" precision="FP16">
					<dim>40</dim>
					<dim>72</dim>
					<dim>1</dim>
					<dim>1</dim>
				</port>
			</output>
		</layer>
		<layer id="99" name="Multiply_8605" type="Convert" version="opset1">
			<data destination_type="f32" />
			<rt_info>
				<attribute name="decompression" version="0" />
			</rt_info>
			<input>
				<port id="0" precision="FP16">
					<dim>40</dim>
					<dim>72</dim>
					<dim>1</dim>
					<dim>1</dim>
				</port>
			</input>
			<output>
				<port id="1" precision="FP32">
					<dim>40</dim>
					<dim>72</dim>
					<dim>1</dim>
					<dim>1</dim>
				</port>
			</output>
		</layer>
		<layer id="100" name="Multiply_8311" type="Convolution" version="opset1">
			<data strides="1, 1" dilations="1, 1" pads_begin="0, 0" pads_end="0, 0" auto_pad="explicit" />
			<input>
				<port id="0" precision="FP32">
					<dim>1</dim>
					<dim>72</dim>
					<dim>16</dim>
					<dim>16</dim>
				</port>
				<port id="1" precision="FP32">
					<dim>40</dim>
					<dim>72</dim>
					<dim>1</dim>
					<dim>1</dim>
				</port>
			</input>
			<output>
				<port id="2" precision="FP32">
					<dim>1</dim>
					<dim>40</dim>
					<dim>16</dim>
					<dim>16</dim>
				</port>
			</output>
		</layer>
		<layer id="101" name="Constant_8316_compressed" type="Const" version="opset1">
			<data element_type="f16" shape="1, 40, 1, 1" offset="37152" size="80" />
			<output>
				<port id="0" precision="FP16">
					<dim>1</dim>
					<dim>40</dim>
					<dim>1</dim>
					<dim>1</dim>
				</port>
			</output>
		</layer>
		<layer id="102" name="Constant_8316" type="Convert" version="opset1">
			<data destination_type="f32" />
			<rt_info>
				<attribute name="decompression" version="0" />
			</rt_info>
			<input>
				<port id="0" precision="FP16">
					<dim>1</dim>
					<dim>40</dim>
					<dim>1</dim>
					<dim>1</dim>
				</port>
			</input>
			<output>
				<port id="1" precision="FP32">
					<dim>1</dim>
					<dim>40</dim>
					<dim>1</dim>
					<dim>1</dim>
				</port>
			</output>
		</layer>
		<layer id="103" name="BatchNormalization_62" type="Add" version="opset1">
			<data auto_broadcast="numpy" />
			<input>
				<port id="0" precision="FP32">
					<dim>1</dim>
					<dim>40</dim>
					<dim>16</dim>
					<dim>16</dim>
				</port>
				<port id="1" precision="FP32">
					<dim>1</dim>
					<dim>40</dim>
					<dim>1</dim>
					<dim>1</dim>
				</port>
			</input>
			<output>
				<port id="2" precision="FP32" names="403">
					<dim>1</dim>
					<dim>40</dim>
					<dim>16</dim>
					<dim>16</dim>
				</port>
			</output>
		</layer>
		<layer id="104" name="Multiply_8609_compressed" type="Const" version="opset1">
			<data element_type="f16" shape="120, 40, 1, 1" offset="37232" size="9600" />
			<output>
				<port id="0" precision="FP16">
					<dim>120</dim>
					<dim>40</dim>
					<dim>1</dim>
					<dim>1</dim>
				</port>
			</output>
		</layer>
		<layer id="105" name="Multiply_8609" type="Convert" version="opset1">
			<data destination_type="f32" />
			<rt_info>
				<attribute name="decompression" version="0" />
			</rt_info>
			<input>
				<port id="0" precision="FP16">
					<dim>120</dim>
					<dim>40</dim>
					<dim>1</dim>
					<dim>1</dim>
				</port>
			</input>
			<output>
				<port id="1" precision="FP32">
					<dim>120</dim>
					<dim>40</dim>
					<dim>1</dim>
					<dim>1</dim>
				</port>
			</output>
		</layer>
		<layer id="106" name="Multiply_8318" type="Convolution" version="opset1">
			<data strides="1, 1" dilations="1, 1" pads_begin="0, 0" pads_end="0, 0" auto_pad="explicit" />
			<input>
				<port id="0" precision="FP32">
					<dim>1</dim>
					<dim>40</dim>
					<dim>16</dim>
					<dim>16</dim>
				</port>
				<port id="1" precision="FP32">
					<dim>120</dim>
					<dim>40</dim>
					<dim>1</dim>
					<dim>1</dim>
				</port>
			</input>
			<output>
				<port id="2" precision="FP32">
					<dim>1</dim>
					<dim>120</dim>
					<dim>16</dim>
					<dim>16</dim>
				</port>
			</output>
		</layer>
		<layer id="107" name="Constant_8323_compressed" type="Const" version="opset1">
			<data element_type="f16" shape="1, 120, 1, 1" offset="46832" size="240" />
			<output>
				<port id="0" precision="FP16">
					<dim>1</dim>
					<dim>120</dim>
					<dim>1</dim>
					<dim>1</dim>
				</port>
			</output>
		</layer>
		<layer id="108" name="Constant_8323" type="Convert" version="opset1">
			<data destination_type="f32" />
			<rt_info>
				<attribute name="decompression" version="0" />
			</rt_info>
			<input>
				<port id="0" precision="FP16">
					<dim>1</dim>
					<dim>120</dim>
					<dim>1</dim>
					<dim>1</dim>
				</port>
			</input>
			<output>
				<port id="1" precision="FP32">
					<dim>1</dim>
					<dim>120</dim>
					<dim>1</dim>
					<dim>1</dim>
				</port>
			</output>
		</layer>
		<layer id="109" name="BatchNormalization_64" type="Add" version="opset1">
			<data auto_broadcast="numpy" />
			<input>
				<port id="0" precision="FP32">
					<dim>1</dim>
					<dim>120</dim>
					<dim>16</dim>
					<dim>16</dim>
				</port>
				<port id="1" precision="FP32">
					<dim>1</dim>
					<dim>120</dim>
					<dim>1</dim>
					<dim>1</dim>
				</port>
			</input>
			<output>
				<port id="2" precision="FP32" names="405">
					<dim>1</dim>
					<dim>120</dim>
					<dim>16</dim>
					<dim>16</dim>
				</port>
			</output>
		</layer>
		<layer id="110" name="Relu_65" type="ReLU" version="opset1">
			<input>
				<port id="0" precision="FP32">
					<dim>1</dim>
					<dim>120</dim>
					<dim>16</dim>
					<dim>16</dim>
				</port>
			</input>
			<output>
				<port id="1" precision="FP32" names="406">
					<dim>1</dim>
					<dim>120</dim>
					<dim>16</dim>
					<dim>16</dim>
				</port>
			</output>
		</layer>
		<layer id="111" name="Multiply_8613_compressed" type="Const" version="opset1">
			<data element_type="f16" shape="120, 1, 1, 5, 5" offset="47072" size="6000" />
			<output>
				<port id="0" precision="FP16">
					<dim>120</dim>
					<dim>1</dim>
					<dim>1</dim>
					<dim>5</dim>
					<dim>5</dim>
				</port>
			</output>
		</layer>
		<layer id="112" name="Multiply_8613" type="Convert" version="opset1">
			<data destination_type="f32" />
			<rt_info>
				<attribute name="decompression" version="0" />
			</rt_info>
			<input>
				<port id="0" precision="FP16">
					<dim>120</dim>
					<dim>1</dim>
					<dim>1</dim>
					<dim>5</dim>
					<dim>5</dim>
				</port>
			</input>
			<output>
				<port id="1" precision="FP32">
					<dim>120</dim>
					<dim>1</dim>
					<dim>1</dim>
					<dim>5</dim>
					<dim>5</dim>
				</port>
			</output>
		</layer>
		<layer id="113" name="Multiply_8325" type="GroupConvolution" version="opset1">
			<data strides="1, 1" pads_begin="2, 2" pads_end="2, 2" dilations="1, 1" auto_pad="explicit" />
			<input>
				<port id="0" precision="FP32">
					<dim>1</dim>
					<dim>120</dim>
					<dim>16</dim>
					<dim>16</dim>
				</port>
				<port id="1" precision="FP32">
					<dim>120</dim>
					<dim>1</dim>
					<dim>1</dim>
					<dim>5</dim>
					<dim>5</dim>
				</port>
			</input>
			<output>
				<port id="2" precision="FP32" names="407">
					<dim>1</dim>
					<dim>120</dim>
					<dim>16</dim>
					<dim>16</dim>
				</port>
			</output>
		</layer>
		<layer id="114" name="Constant_8330_compressed" type="Const" version="opset1">
			<data element_type="f16" shape="1, 120, 1, 1" offset="53072" size="240" />
			<output>
				<port id="0" precision="FP16">
					<dim>1</dim>
					<dim>120</dim>
					<dim>1</dim>
					<dim>1</dim>
				</port>
			</output>
		</layer>
		<layer id="115" name="Constant_8330" type="Convert" version="opset1">
			<data destination_type="f32" />
			<rt_info>
				<attribute name="decompression" version="0" />
			</rt_info>
			<input>
				<port id="0" precision="FP16">
					<dim>1</dim>
					<dim>120</dim>
					<dim>1</dim>
					<dim>1</dim>
				</port>
			</input>
			<output>
				<port id="1" precision="FP32">
					<dim>1</dim>
					<dim>120</dim>
					<dim>1</dim>
					<dim>1</dim>
				</port>
			</output>
		</layer>
		<layer id="116" name="BatchNormalization_67" type="Add" version="opset1">
			<data auto_broadcast="numpy" />
			<input>
				<port id="0" precision="FP32">
					<dim>1</dim>
					<dim>120</dim>
					<dim>16</dim>
					<dim>16</dim>
				</port>
				<port id="1" precision="FP32">
					<dim>1</dim>
					<dim>120</dim>
					<dim>1</dim>
					<dim>1</dim>
				</port>
			</input>
			<output>
				<port id="2" precision="FP32" names="408">
					<dim>1</dim>
					<dim>120</dim>
					<dim>16</dim>
					<dim>16</dim>
				</port>
			</output>
		</layer>
		<layer id="117" name="Range_638" type="Const" version="opset1">
			<data element_type="i64" shape="2" offset="24224" size="16" />
			<output>
				<port id="0" precision="I64">
					<dim>2</dim>
				</port>
			</output>
		</layer>
		<layer id="118" name="GlobalAveragePool_74" type="ReduceMean" version="opset1">
			<data keep_dims="true" />
			<input>
				<port id="0" precision="FP32">
					<dim>1</dim>
					<dim>120</dim>
					<dim>16</dim>
					<dim>16</dim>
				</port>
				<port id="1" precision="I64">
					<dim>2</dim>
				</port>
			</input>
			<output>
				<port id="2" precision="FP32" names="415">
					<dim>1</dim>
					<dim>120</dim>
					<dim>1</dim>
					<dim>1</dim>
				</port>
			</output>
		</layer>
		<layer id="119" name="Concat_2362" type="Const" version="opset1">
			<data element_type="i64" shape="2" offset="53312" size="16" />
			<rt_info>
				<attribute name="precise" version="0" />
			</rt_info>
			<output>
				<port id="0" precision="I64">
					<dim>2</dim>
				</port>
			</output>
		</layer>
		<layer id="120" name="Reshape_78" type="Reshape" version="opset1">
			<data special_zero="true" />
			<input>
				<port id="0" precision="FP32">
					<dim>1</dim>
					<dim>120</dim>
					<dim>1</dim>
					<dim>1</dim>
				</port>
				<port id="1" precision="I64">
					<dim>2</dim>
				</port>
			</input>
			<output>
				<port id="2" precision="FP32" names="419">
					<dim>1</dim>
					<dim>120</dim>
				</port>
			</output>
		</layer>
		<layer id="121" name="features.5.conv.5.fc.0.weight_compressed" type="Const" version="opset1">
			<data element_type="f16" shape="32, 120" offset="53328" size="7680" />
			<output>
				<port id="0" precision="FP16" names="features.5.conv.5.fc.0.weight">
					<dim>32</dim>
					<dim>120</dim>
				</port>
			</output>
		</layer>
		<layer id="122" name="features.5.conv.5.fc.0.weight" type="Convert" version="opset1">
			<data destination_type="f32" />
			<rt_info>
				<attribute name="decompression" version="0" />
			</rt_info>
			<input>
				<port id="0" precision="FP16">
					<dim>32</dim>
					<dim>120</dim>
				</port>
			</input>
			<output>
				<port id="1" precision="FP32">
					<dim>32</dim>
					<dim>120</dim>
				</port>
			</output>
		</layer>
		<layer id="123" name="Gemm_79/WithoutBiases" type="MatMul" version="opset1">
			<data transpose_a="false" transpose_b="true" />
			<input>
				<port id="0" precision="FP32">
					<dim>1</dim>
					<dim>120</dim>
				</port>
				<port id="1" precision="FP32">
					<dim>32</dim>
					<dim>120</dim>
				</port>
			</input>
			<output>
				<port id="2" precision="FP32">
					<dim>1</dim>
					<dim>32</dim>
				</port>
			</output>
		</layer>
		<layer id="124" name="Constant_8922_compressed" type="Const" version="opset1">
			<data element_type="f16" shape="1, 32" offset="61008" size="64" />
			<output>
				<port id="0" precision="FP16">
					<dim>1</dim>
					<dim>32</dim>
				</port>
			</output>
		</layer>
		<layer id="125" name="Constant_8922" type="Convert" version="opset1">
			<data destination_type="f32" />
			<rt_info>
				<attribute name="decompression" version="0" />
			</rt_info>
			<input>
				<port id="0" precision="FP16">
					<dim>1</dim>
					<dim>32</dim>
				</port>
			</input>
			<output>
				<port id="1" precision="FP32">
					<dim>1</dim>
					<dim>32</dim>
				</port>
			</output>
		</layer>
		<layer id="126" name="Gemm_79" type="Add" version="opset1">
			<data auto_broadcast="numpy" />
			<input>
				<port id="0" precision="FP32">
					<dim>1</dim>
					<dim>32</dim>
				</port>
				<port id="1" precision="FP32">
					<dim>1</dim>
					<dim>32</dim>
				</port>
			</input>
			<output>
				<port id="2" precision="FP32" names="420">
					<dim>1</dim>
					<dim>32</dim>
				</port>
			</output>
		</layer>
		<layer id="127" name="Relu_80" type="ReLU" version="opset1">
			<input>
				<port id="0" precision="FP32">
					<dim>1</dim>
					<dim>32</dim>
				</port>
			</input>
			<output>
				<port id="1" precision="FP32" names="421">
					<dim>1</dim>
					<dim>32</dim>
				</port>
			</output>
		</layer>
		<layer id="128" name="features.5.conv.5.fc.2.weight_compressed" type="Const" version="opset1">
			<data element_type="f16" shape="120, 32" offset="61072" size="7680" />
			<output>
				<port id="0" precision="FP16" names="features.5.conv.5.fc.2.weight">
					<dim>120</dim>
					<dim>32</dim>
				</port>
			</output>
		</layer>
		<layer id="129" name="features.5.conv.5.fc.2.weight" type="Convert" version="opset1">
			<data destination_type="f32" />
			<rt_info>
				<attribute name="decompression" version="0" />
			</rt_info>
			<input>
				<port id="0" precision="FP16">
					<dim>120</dim>
					<dim>32</dim>
				</port>
			</input>
			<output>
				<port id="1" precision="FP32">
					<dim>120</dim>
					<dim>32</dim>
				</port>
			</output>
		</layer>
		<layer id="130" name="Gemm_81/WithoutBiases" type="MatMul" version="opset1">
			<data transpose_a="false" transpose_b="true" />
			<input>
				<port id="0" precision="FP32">
					<dim>1</dim>
					<dim>32</dim>
				</port>
				<port id="1" precision="FP32">
					<dim>120</dim>
					<dim>32</dim>
				</port>
			</input>
			<output>
				<port id="2" precision="FP32">
					<dim>1</dim>
					<dim>120</dim>
				</port>
			</output>
		</layer>
		<layer id="131" name="Constant_8923_compressed" type="Const" version="opset1">
			<data element_type="f16" shape="1, 120" offset="68752" size="240" />
			<output>
				<port id="0" precision="FP16">
					<dim>1</dim>
					<dim>120</dim>
				</port>
			</output>
		</layer>
		<layer id="132" name="Constant_8923" type="Convert" version="opset1">
			<data destination_type="f32" />
			<rt_info>
				<attribute name="decompression" version="0" />
			</rt_info>
			<input>
				<port id="0" precision="FP16">
					<dim>1</dim>
					<dim>120</dim>
				</port>
			</input>
			<output>
				<port id="1" precision="FP32">
					<dim>1</dim>
					<dim>120</dim>
				</port>
			</output>
		</layer>
		<layer id="133" name="Gemm_81" type="Add" version="opset1">
			<data auto_broadcast="numpy" />
			<input>
				<port id="0" precision="FP32">
					<dim>1</dim>
					<dim>120</dim>
				</port>
				<port id="1" precision="FP32">
					<dim>1</dim>
					<dim>120</dim>
				</port>
			</input>
			<output>
				<port id="2" precision="FP32" names="422">
					<dim>1</dim>
					<dim>120</dim>
				</port>
			</output>
		</layer>
		<layer id="134" name="Div_86" type="HSigmoid" version="opset5">
			<input>
				<port id="0" precision="FP32">
					<dim>1</dim>
					<dim>120</dim>
				</port>
			</input>
			<output>
				<port id="1" precision="FP32" names="427">
					<dim>1</dim>
					<dim>120</dim>
				</port>
			</output>
		</layer>
		<layer id="135" name="Constant_9030" type="Const" version="opset1">
			<data element_type="i64" shape="4" offset="68992" size="32" />
			<rt_info>
				<attribute name="precise" version="0" />
			</rt_info>
			<output>
				<port id="0" precision="I64">
					<dim>4</dim>
				</port>
			</output>
		</layer>
		<layer id="136" name="Reshape_90" type="Reshape" version="opset1">
			<data special_zero="true" />
			<input>
				<port id="0" precision="FP32">
					<dim>1</dim>
					<dim>120</dim>
				</port>
				<port id="1" precision="I64">
					<dim>4</dim>
				</port>
			</input>
			<output>
				<port id="2" precision="FP32" names="435">
					<dim>1</dim>
					<dim>120</dim>
					<dim>1</dim>
					<dim>1</dim>
				</port>
			</output>
		</layer>
		<layer id="137" name="Mul_91" type="Multiply" version="opset1">
			<data auto_broadcast="numpy" />
			<input>
				<port id="0" precision="FP32">
					<dim>1</dim>
					<dim>120</dim>
					<dim>16</dim>
					<dim>16</dim>
				</port>
				<port id="1" precision="FP32">
					<dim>1</dim>
					<dim>120</dim>
					<dim>1</dim>
					<dim>1</dim>
				</port>
			</input>
			<output>
				<port id="2" precision="FP32" names="436">
					<dim>1</dim>
					<dim>120</dim>
					<dim>16</dim>
					<dim>16</dim>
				</port>
			</output>
		</layer>
		<layer id="138" name="Relu_92" type="ReLU" version="opset1">
			<input>
				<port id="0" precision="FP32">
					<dim>1</dim>
					<dim>120</dim>
					<dim>16</dim>
					<dim>16</dim>
				</port>
			</input>
			<output>
				<port id="1" precision="FP32" names="437">
					<dim>1</dim>
					<dim>120</dim>
					<dim>16</dim>
					<dim>16</dim>
				</port>
			</output>
		</layer>
		<layer id="139" name="Multiply_8616_compressed" type="Const" version="opset1">
			<data element_type="f16" shape="40, 120, 1, 1" offset="69024" size="9600" />
			<output>
				<port id="0" precision="FP16">
					<dim>40</dim>
					<dim>120</dim>
					<dim>1</dim>
					<dim>1</dim>
				</port>
			</output>
		</layer>
		<layer id="140" name="Multiply_8616" type="Convert" version="opset1">
			<data destination_type="f32" />
			<rt_info>
				<attribute name="decompression" version="0" />
			</rt_info>
			<input>
				<port id="0" precision="FP16">
					<dim>40</dim>
					<dim>120</dim>
					<dim>1</dim>
					<dim>1</dim>
				</port>
			</input>
			<output>
				<port id="1" precision="FP32">
					<dim>40</dim>
					<dim>120</dim>
					<dim>1</dim>
					<dim>1</dim>
				</port>
			</output>
		</layer>
		<layer id="141" name="Multiply_8332" type="Convolution" version="opset1">
			<data strides="1, 1" dilations="1, 1" pads_begin="0, 0" pads_end="0, 0" auto_pad="explicit" />
			<input>
				<port id="0" precision="FP32">
					<dim>1</dim>
					<dim>120</dim>
					<dim>16</dim>
					<dim>16</dim>
				</port>
				<port id="1" precision="FP32">
					<dim>40</dim>
					<dim>120</dim>
					<dim>1</dim>
					<dim>1</dim>
				</port>
			</input>
			<output>
				<port id="2" precision="FP32">
					<dim>1</dim>
					<dim>40</dim>
					<dim>16</dim>
					<dim>16</dim>
				</port>
			</output>
		</layer>
		<layer id="142" name="Constant_8337_compressed" type="Const" version="opset1">
			<data element_type="f16" shape="1, 40, 1, 1" offset="78624" size="80" />
			<output>
				<port id="0" precision="FP16">
					<dim>1</dim>
					<dim>40</dim>
					<dim>1</dim>
					<dim>1</dim>
				</port>
			</output>
		</layer>
		<layer id="143" name="Constant_8337" type="Convert" version="opset1">
			<data destination_type="f32" />
			<rt_info>
				<attribute name="decompression" version="0" />
			</rt_info>
			<input>
				<port id="0" precision="FP16">
					<dim>1</dim>
					<dim>40</dim>
					<dim>1</dim>
					<dim>1</dim>
				</port>
			</input>
			<output>
				<port id="1" precision="FP32">
					<dim>1</dim>
					<dim>40</dim>
					<dim>1</dim>
					<dim>1</dim>
				</port>
			</output>
		</layer>
		<layer id="144" name="BatchNormalization_94" type="Add" version="opset1">
			<data auto_broadcast="numpy" />
			<input>
				<port id="0" precision="FP32">
					<dim>1</dim>
					<dim>40</dim>
					<dim>16</dim>
					<dim>16</dim>
				</port>
				<port id="1" precision="FP32">
					<dim>1</dim>
					<dim>40</dim>
					<dim>1</dim>
					<dim>1</dim>
				</port>
			</input>
			<output>
				<port id="2" precision="FP32" names="439">
					<dim>1</dim>
					<dim>40</dim>
					<dim>16</dim>
					<dim>16</dim>
				</port>
			</output>
		</layer>
		<layer id="145" name="Add_95" type="Add" version="opset1">
			<data auto_broadcast="numpy" />
			<input>
				<port id="0" precision="FP32">
					<dim>1</dim>
					<dim>40</dim>
					<dim>16</dim>
					<dim>16</dim>
				</port>
				<port id="1" precision="FP32">
					<dim>1</dim>
					<dim>40</dim>
					<dim>16</dim>
					<dim>16</dim>
				</port>
			</input>
			<output>
				<port id="2" precision="FP32" names="440">
					<dim>1</dim>
					<dim>40</dim>
					<dim>16</dim>
					<dim>16</dim>
				</port>
			</output>
		</layer>
		<layer id="146" name="Multiply_8620_compressed" type="Const" version="opset1">
			<data element_type="f16" shape="120, 40, 1, 1" offset="78704" size="9600" />
			<output>
				<port id="0" precision="FP16">
					<dim>120</dim>
					<dim>40</dim>
					<dim>1</dim>
					<dim>1</dim>
				</port>
			</output>
		</layer>
		<layer id="147" name="Multiply_8620" type="Convert" version="opset1">
			<data destination_type="f32" />
			<rt_info>
				<attribute name="decompression" version="0" />
			</rt_info>
			<input>
				<port id="0" precision="FP16">
					<dim>120</dim>
					<dim>40</dim>
					<dim>1</dim>
					<dim>1</dim>
				</port>
			</input>
			<output>
				<port id="1" precision="FP32">
					<dim>120</dim>
					<dim>40</dim>
					<dim>1</dim>
					<dim>1</dim>
				</port>
			</output>
		</layer>
		<layer id="148" name="Multiply_8339" type="Convolution" version="opset1">
			<data strides="1, 1" dilations="1, 1" pads_begin="0, 0" pads_end="0, 0" auto_pad="explicit" />
			<input>
				<port id="0" precision="FP32">
					<dim>1</dim>
					<dim>40</dim>
					<dim>16</dim>
					<dim>16</dim>
				</port>
				<port id="1" precision="FP32">
					<dim>120</dim>
					<dim>40</dim>
					<dim>1</dim>
					<dim>1</dim>
				</port>
			</input>
			<output>
				<port id="2" precision="FP32">
					<dim>1</dim>
					<dim>120</dim>
					<dim>16</dim>
					<dim>16</dim>
				</port>
			</output>
		</layer>
		<layer id="149" name="Constant_8344_compressed" type="Const" version="opset1">
			<data element_type="f16" shape="1, 120, 1, 1" offset="88304" size="240" />
			<output>
				<port id="0" precision="FP16">
					<dim>1</dim>
					<dim>120</dim>
					<dim>1</dim>
					<dim>1</dim>
				</port>
			</output>
		</layer>
		<layer id="150" name="Constant_8344" type="Convert" version="opset1">
			<data destination_type="f32" />
			<rt_info>
				<attribute name="decompression" version="0" />
			</rt_info>
			<input>
				<port id="0" precision="FP16">
					<dim>1</dim>
					<dim>120</dim>
					<dim>1</dim>
					<dim>1</dim>
				</port>
			</input>
			<output>
				<port id="1" precision="FP32">
					<dim>1</dim>
					<dim>120</dim>
					<dim>1</dim>
					<dim>1</dim>
				</port>
			</output>
		</layer>
		<layer id="151" name="BatchNormalization_97" type="Add" version="opset1">
			<data auto_broadcast="numpy" />
			<input>
				<port id="0" precision="FP32">
					<dim>1</dim>
					<dim>120</dim>
					<dim>16</dim>
					<dim>16</dim>
				</port>
				<port id="1" precision="FP32">
					<dim>1</dim>
					<dim>120</dim>
					<dim>1</dim>
					<dim>1</dim>
				</port>
			</input>
			<output>
				<port id="2" precision="FP32" names="442">
					<dim>1</dim>
					<dim>120</dim>
					<dim>16</dim>
					<dim>16</dim>
				</port>
			</output>
		</layer>
		<layer id="152" name="Relu_98" type="ReLU" version="opset1">
			<input>
				<port id="0" precision="FP32">
					<dim>1</dim>
					<dim>120</dim>
					<dim>16</dim>
					<dim>16</dim>
				</port>
			</input>
			<output>
				<port id="1" precision="FP32" names="443">
					<dim>1</dim>
					<dim>120</dim>
					<dim>16</dim>
					<dim>16</dim>
				</port>
			</output>
		</layer>
		<layer id="153" name="Multiply_8624_compressed" type="Const" version="opset1">
			<data element_type="f16" shape="120, 1, 1, 5, 5" offset="88544" size="6000" />
			<output>
				<port id="0" precision="FP16">
					<dim>120</dim>
					<dim>1</dim>
					<dim>1</dim>
					<dim>5</dim>
					<dim>5</dim>
				</port>
			</output>
		</layer>
		<layer id="154" name="Multiply_8624" type="Convert" version="opset1">
			<data destination_type="f32" />
			<rt_info>
				<attribute name="decompression" version="0" />
			</rt_info>
			<input>
				<port id="0" precision="FP16">
					<dim>120</dim>
					<dim>1</dim>
					<dim>1</dim>
					<dim>5</dim>
					<dim>5</dim>
				</port>
			</input>
			<output>
				<port id="1" precision="FP32">
					<dim>120</dim>
					<dim>1</dim>
					<dim>1</dim>
					<dim>5</dim>
					<dim>5</dim>
				</port>
			</output>
		</layer>
		<layer id="155" name="Multiply_8346" type="GroupConvolution" version="opset1">
			<data strides="1, 1" pads_begin="2, 2" pads_end="2, 2" dilations="1, 1" auto_pad="explicit" />
			<input>
				<port id="0" precision="FP32">
					<dim>1</dim>
					<dim>120</dim>
					<dim>16</dim>
					<dim>16</dim>
				</port>
				<port id="1" precision="FP32">
					<dim>120</dim>
					<dim>1</dim>
					<dim>1</dim>
					<dim>5</dim>
					<dim>5</dim>
				</port>
			</input>
			<output>
				<port id="2" precision="FP32" names="444">
					<dim>1</dim>
					<dim>120</dim>
					<dim>16</dim>
					<dim>16</dim>
				</port>
			</output>
		</layer>
		<layer id="156" name="Constant_8351_compressed" type="Const" version="opset1">
			<data element_type="f16" shape="1, 120, 1, 1" offset="94544" size="240" />
			<output>
				<port id="0" precision="FP16">
					<dim>1</dim>
					<dim>120</dim>
					<dim>1</dim>
					<dim>1</dim>
				</port>
			</output>
		</layer>
		<layer id="157" name="Constant_8351" type="Convert" version="opset1">
			<data destination_type="f32" />
			<rt_info>
				<attribute name="decompression" version="0" />
			</rt_info>
			<input>
				<port id="0" precision="FP16">
					<dim>1</dim>
					<dim>120</dim>
					<dim>1</dim>
					<dim>1</dim>
				</port>
			</input>
			<output>
				<port id="1" precision="FP32">
					<dim>1</dim>
					<dim>120</dim>
					<dim>1</dim>
					<dim>1</dim>
				</port>
			</output>
		</layer>
		<layer id="158" name="BatchNormalization_100" type="Add" version="opset1">
			<data auto_broadcast="numpy" />
			<input>
				<port id="0" precision="FP32">
					<dim>1</dim>
					<dim>120</dim>
					<dim>16</dim>
					<dim>16</dim>
				</port>
				<port id="1" precision="FP32">
					<dim>1</dim>
					<dim>120</dim>
					<dim>1</dim>
					<dim>1</dim>
				</port>
			</input>
			<output>
				<port id="2" precision="FP32" names="445">
					<dim>1</dim>
					<dim>120</dim>
					<dim>16</dim>
					<dim>16</dim>
				</port>
			</output>
		</layer>
		<layer id="159" name="Range_745" type="Const" version="opset1">
			<data element_type="i64" shape="2" offset="24224" size="16" />
			<output>
				<port id="0" precision="I64">
					<dim>2</dim>
				</port>
			</output>
		</layer>
		<layer id="160" name="GlobalAveragePool_107" type="ReduceMean" version="opset1">
			<data keep_dims="true" />
			<input>
				<port id="0" precision="FP32">
					<dim>1</dim>
					<dim>120</dim>
					<dim>16</dim>
					<dim>16</dim>
				</port>
				<port id="1" precision="I64">
					<dim>2</dim>
				</port>
			</input>
			<output>
				<port id="2" precision="FP32" names="452">
					<dim>1</dim>
					<dim>120</dim>
					<dim>1</dim>
					<dim>1</dim>
				</port>
			</output>
		</layer>
		<layer id="161" name="Concat_2368" type="Const" version="opset1">
			<data element_type="i64" shape="2" offset="53312" size="16" />
			<rt_info>
				<attribute name="precise" version="0" />
			</rt_info>
			<output>
				<port id="0" precision="I64">
					<dim>2</dim>
				</port>
			</output>
		</layer>
		<layer id="162" name="Reshape_111" type="Reshape" version="opset1">
			<data special_zero="true" />
			<input>
				<port id="0" precision="FP32">
					<dim>1</dim>
					<dim>120</dim>
					<dim>1</dim>
					<dim>1</dim>
				</port>
				<port id="1" precision="I64">
					<dim>2</dim>
				</port>
			</input>
			<output>
				<port id="2" precision="FP32" names="456">
					<dim>1</dim>
					<dim>120</dim>
				</port>
			</output>
		</layer>
		<layer id="163" name="features.6.conv.5.fc.0.weight_compressed" type="Const" version="opset1">
			<data element_type="f16" shape="32, 120" offset="94784" size="7680" />
			<output>
				<port id="0" precision="FP16" names="features.6.conv.5.fc.0.weight">
					<dim>32</dim>
					<dim>120</dim>
				</port>
			</output>
		</layer>
		<layer id="164" name="features.6.conv.5.fc.0.weight" type="Convert" version="opset1">
			<data destination_type="f32" />
			<rt_info>
				<attribute name="decompression" version="0" />
			</rt_info>
			<input>
				<port id="0" precision="FP16">
					<dim>32</dim>
					<dim>120</dim>
				</port>
			</input>
			<output>
				<port id="1" precision="FP32">
					<dim>32</dim>
					<dim>120</dim>
				</port>
			</output>
		</layer>
		<layer id="165" name="Gemm_112/WithoutBiases" type="MatMul" version="opset1">
			<data transpose_a="false" transpose_b="true" />
			<input>
				<port id="0" precision="FP32">
					<dim>1</dim>
					<dim>120</dim>
				</port>
				<port id="1" precision="FP32">
					<dim>32</dim>
					<dim>120</dim>
				</port>
			</input>
			<output>
				<port id="2" precision="FP32">
					<dim>1</dim>
					<dim>32</dim>
				</port>
			</output>
		</layer>
		<layer id="166" name="Constant_8924_compressed" type="Const" version="opset1">
			<data element_type="f16" shape="1, 32" offset="102464" size="64" />
			<output>
				<port id="0" precision="FP16">
					<dim>1</dim>
					<dim>32</dim>
				</port>
			</output>
		</layer>
		<layer id="167" name="Constant_8924" type="Convert" version="opset1">
			<data destination_type="f32" />
			<rt_info>
				<attribute name="decompression" version="0" />
			</rt_info>
			<input>
				<port id="0" precision="FP16">
					<dim>1</dim>
					<dim>32</dim>
				</port>
			</input>
			<output>
				<port id="1" precision="FP32">
					<dim>1</dim>
					<dim>32</dim>
				</port>
			</output>
		</layer>
		<layer id="168" name="Gemm_112" type="Add" version="opset1">
			<data auto_broadcast="numpy" />
			<input>
				<port id="0" precision="FP32">
					<dim>1</dim>
					<dim>32</dim>
				</port>
				<port id="1" precision="FP32">
					<dim>1</dim>
					<dim>32</dim>
				</port>
			</input>
			<output>
				<port id="2" precision="FP32" names="457">
					<dim>1</dim>
					<dim>32</dim>
				</port>
			</output>
		</layer>
		<layer id="169" name="Relu_113" type="ReLU" version="opset1">
			<input>
				<port id="0" precision="FP32">
					<dim>1</dim>
					<dim>32</dim>
				</port>
			</input>
			<output>
				<port id="1" precision="FP32" names="458">
					<dim>1</dim>
					<dim>32</dim>
				</port>
			</output>
		</layer>
		<layer id="170" name="features.6.conv.5.fc.2.weight_compressed" type="Const" version="opset1">
			<data element_type="f16" shape="120, 32" offset="102528" size="7680" />
			<output>
				<port id="0" precision="FP16" names="features.6.conv.5.fc.2.weight">
					<dim>120</dim>
					<dim>32</dim>
				</port>
			</output>
		</layer>
		<layer id="171" name="features.6.conv.5.fc.2.weight" type="Convert" version="opset1">
			<data destination_type="f32" />
			<rt_info>
				<attribute name="decompression" version="0" />
			</rt_info>
			<input>
				<port id="0" precision="FP16">
					<dim>120</dim>
					<dim>32</dim>
				</port>
			</input>
			<output>
				<port id="1" precision="FP32">
					<dim>120</dim>
					<dim>32</dim>
				</port>
			</output>
		</layer>
		<layer id="172" name="Gemm_114/WithoutBiases" type="MatMul" version="opset1">
			<data transpose_a="false" transpose_b="true" />
			<input>
				<port id="0" precision="FP32">
					<dim>1</dim>
					<dim>32</dim>
				</port>
				<port id="1" precision="FP32">
					<dim>120</dim>
					<dim>32</dim>
				</port>
			</input>
			<output>
				<port id="2" precision="FP32">
					<dim>1</dim>
					<dim>120</dim>
				</port>
			</output>
		</layer>
		<layer id="173" name="Constant_8925_compressed" type="Const" version="opset1">
			<data element_type="f16" shape="1, 120" offset="110208" size="240" />
			<output>
				<port id="0" precision="FP16">
					<dim>1</dim>
					<dim>120</dim>
				</port>
			</output>
		</layer>
		<layer id="174" name="Constant_8925" type="Convert" version="opset1">
			<data destination_type="f32" />
			<rt_info>
				<attribute name="decompression" version="0" />
			</rt_info>
			<input>
				<port id="0" precision="FP16">
					<dim>1</dim>
					<dim>120</dim>
				</port>
			</input>
			<output>
				<port id="1" precision="FP32">
					<dim>1</dim>
					<dim>120</dim>
				</port>
			</output>
		</layer>
		<layer id="175" name="Gemm_114" type="Add" version="opset1">
			<data auto_broadcast="numpy" />
			<input>
				<port id="0" precision="FP32">
					<dim>1</dim>
					<dim>120</dim>
				</port>
				<port id="1" precision="FP32">
					<dim>1</dim>
					<dim>120</dim>
				</port>
			</input>
			<output>
				<port id="2" precision="FP32" names="459">
					<dim>1</dim>
					<dim>120</dim>
				</port>
			</output>
		</layer>
		<layer id="176" name="Div_119" type="HSigmoid" version="opset5">
			<input>
				<port id="0" precision="FP32">
					<dim>1</dim>
					<dim>120</dim>
				</port>
			</input>
			<output>
				<port id="1" precision="FP32" names="464">
					<dim>1</dim>
					<dim>120</dim>
				</port>
			</output>
		</layer>
		<layer id="177" name="Constant_9031" type="Const" version="opset1">
			<data element_type="i64" shape="4" offset="68992" size="32" />
			<rt_info>
				<attribute name="precise" version="0" />
			</rt_info>
			<output>
				<port id="0" precision="I64">
					<dim>4</dim>
				</port>
			</output>
		</layer>
		<layer id="178" name="Reshape_123" type="Reshape" version="opset1">
			<data special_zero="true" />
			<input>
				<port id="0" precision="FP32">
					<dim>1</dim>
					<dim>120</dim>
				</port>
				<port id="1" precision="I64">
					<dim>4</dim>
				</port>
			</input>
			<output>
				<port id="2" precision="FP32" names="472">
					<dim>1</dim>
					<dim>120</dim>
					<dim>1</dim>
					<dim>1</dim>
				</port>
			</output>
		</layer>
		<layer id="179" name="Mul_124" type="Multiply" version="opset1">
			<data auto_broadcast="numpy" />
			<input>
				<port id="0" precision="FP32">
					<dim>1</dim>
					<dim>120</dim>
					<dim>16</dim>
					<dim>16</dim>
				</port>
				<port id="1" precision="FP32">
					<dim>1</dim>
					<dim>120</dim>
					<dim>1</dim>
					<dim>1</dim>
				</port>
			</input>
			<output>
				<port id="2" precision="FP32" names="473">
					<dim>1</dim>
					<dim>120</dim>
					<dim>16</dim>
					<dim>16</dim>
				</port>
			</output>
		</layer>
		<layer id="180" name="Relu_125" type="ReLU" version="opset1">
			<input>
				<port id="0" precision="FP32">
					<dim>1</dim>
					<dim>120</dim>
					<dim>16</dim>
					<dim>16</dim>
				</port>
			</input>
			<output>
				<port id="1" precision="FP32" names="474">
					<dim>1</dim>
					<dim>120</dim>
					<dim>16</dim>
					<dim>16</dim>
				</port>
			</output>
		</layer>
		<layer id="181" name="Multiply_8627_compressed" type="Const" version="opset1">
			<data element_type="f16" shape="40, 120, 1, 1" offset="110448" size="9600" />
			<output>
				<port id="0" precision="FP16">
					<dim>40</dim>
					<dim>120</dim>
					<dim>1</dim>
					<dim>1</dim>
				</port>
			</output>
		</layer>
		<layer id="182" name="Multiply_8627" type="Convert" version="opset1">
			<data destination_type="f32" />
			<rt_info>
				<attribute name="decompression" version="0" />
			</rt_info>
			<input>
				<port id="0" precision="FP16">
					<dim>40</dim>
					<dim>120</dim>
					<dim>1</dim>
					<dim>1</dim>
				</port>
			</input>
			<output>
				<port id="1" precision="FP32">
					<dim>40</dim>
					<dim>120</dim>
					<dim>1</dim>
					<dim>1</dim>
				</port>
			</output>
		</layer>
		<layer id="183" name="Multiply_8353" type="Convolution" version="opset1">
			<data strides="1, 1" dilations="1, 1" pads_begin="0, 0" pads_end="0, 0" auto_pad="explicit" />
			<input>
				<port id="0" precision="FP32">
					<dim>1</dim>
					<dim>120</dim>
					<dim>16</dim>
					<dim>16</dim>
				</port>
				<port id="1" precision="FP32">
					<dim>40</dim>
					<dim>120</dim>
					<dim>1</dim>
					<dim>1</dim>
				</port>
			</input>
			<output>
				<port id="2" precision="FP32">
					<dim>1</dim>
					<dim>40</dim>
					<dim>16</dim>
					<dim>16</dim>
				</port>
			</output>
		</layer>
		<layer id="184" name="Constant_8358_compressed" type="Const" version="opset1">
			<data element_type="f16" shape="1, 40, 1, 1" offset="120048" size="80" />
			<output>
				<port id="0" precision="FP16">
					<dim>1</dim>
					<dim>40</dim>
					<dim>1</dim>
					<dim>1</dim>
				</port>
			</output>
		</layer>
		<layer id="185" name="Constant_8358" type="Convert" version="opset1">
			<data destination_type="f32" />
			<rt_info>
				<attribute name="decompression" version="0" />
			</rt_info>
			<input>
				<port id="0" precision="FP16">
					<dim>1</dim>
					<dim>40</dim>
					<dim>1</dim>
					<dim>1</dim>
				</port>
			</input>
			<output>
				<port id="1" precision="FP32">
					<dim>1</dim>
					<dim>40</dim>
					<dim>1</dim>
					<dim>1</dim>
				</port>
			</output>
		</layer>
		<layer id="186" name="BatchNormalization_127" type="Add" version="opset1">
			<data auto_broadcast="numpy" />
			<input>
				<port id="0" precision="FP32">
					<dim>1</dim>
					<dim>40</dim>
					<dim>16</dim>
					<dim>16</dim>
				</port>
				<port id="1" precision="FP32">
					<dim>1</dim>
					<dim>40</dim>
					<dim>1</dim>
					<dim>1</dim>
				</port>
			</input>
			<output>
				<port id="2" precision="FP32" names="476">
					<dim>1</dim>
					<dim>40</dim>
					<dim>16</dim>
					<dim>16</dim>
				</port>
			</output>
		</layer>
		<layer id="187" name="Add_128" type="Add" version="opset1">
			<data auto_broadcast="numpy" />
			<input>
				<port id="0" precision="FP32">
					<dim>1</dim>
					<dim>40</dim>
					<dim>16</dim>
					<dim>16</dim>
				</port>
				<port id="1" precision="FP32">
					<dim>1</dim>
					<dim>40</dim>
					<dim>16</dim>
					<dim>16</dim>
				</port>
			</input>
			<output>
				<port id="2" precision="FP32" names="477">
					<dim>1</dim>
					<dim>40</dim>
					<dim>16</dim>
					<dim>16</dim>
				</port>
			</output>
		</layer>
		<layer id="188" name="Multiply_8631_compressed" type="Const" version="opset1">
			<data element_type="f16" shape="240, 40, 1, 1" offset="120128" size="19200" />
			<output>
				<port id="0" precision="FP16">
					<dim>240</dim>
					<dim>40</dim>
					<dim>1</dim>
					<dim>1</dim>
				</port>
			</output>
		</layer>
		<layer id="189" name="Multiply_8631" type="Convert" version="opset1">
			<data destination_type="f32" />
			<rt_info>
				<attribute name="decompression" version="0" />
			</rt_info>
			<input>
				<port id="0" precision="FP16">
					<dim>240</dim>
					<dim>40</dim>
					<dim>1</dim>
					<dim>1</dim>
				</port>
			</input>
			<output>
				<port id="1" precision="FP32">
					<dim>240</dim>
					<dim>40</dim>
					<dim>1</dim>
					<dim>1</dim>
				</port>
			</output>
		</layer>
		<layer id="190" name="Multiply_8360" type="Convolution" version="opset1">
			<data strides="1, 1" dilations="1, 1" pads_begin="0, 0" pads_end="0, 0" auto_pad="explicit" />
			<input>
				<port id="0" precision="FP32">
					<dim>1</dim>
					<dim>40</dim>
					<dim>16</dim>
					<dim>16</dim>
				</port>
				<port id="1" precision="FP32">
					<dim>240</dim>
					<dim>40</dim>
					<dim>1</dim>
					<dim>1</dim>
				</port>
			</input>
			<output>
				<port id="2" precision="FP32">
					<dim>1</dim>
					<dim>240</dim>
					<dim>16</dim>
					<dim>16</dim>
				</port>
			</output>
		</layer>
		<layer id="191" name="Constant_8365_compressed" type="Const" version="opset1">
			<data element_type="f16" shape="1, 240, 1, 1" offset="139328" size="480" />
			<output>
				<port id="0" precision="FP16">
					<dim>1</dim>
					<dim>240</dim>
					<dim>1</dim>
					<dim>1</dim>
				</port>
			</output>
		</layer>
		<layer id="192" name="Constant_8365" type="Convert" version="opset1">
			<data destination_type="f32" />
			<rt_info>
				<attribute name="decompression" version="0" />
			</rt_info>
			<input>
				<port id="0" precision="FP16">
					<dim>1</dim>
					<dim>240</dim>
					<dim>1</dim>
					<dim>1</dim>
				</port>
			</input>
			<output>
				<port id="1" precision="FP32">
					<dim>1</dim>
					<dim>240</dim>
					<dim>1</dim>
					<dim>1</dim>
				</port>
			</output>
		</layer>
		<layer id="193" name="BatchNormalization_130" type="Add" version="opset1">
			<data auto_broadcast="numpy" />
			<input>
				<port id="0" precision="FP32">
					<dim>1</dim>
					<dim>240</dim>
					<dim>16</dim>
					<dim>16</dim>
				</port>
				<port id="1" precision="FP32">
					<dim>1</dim>
					<dim>240</dim>
					<dim>1</dim>
					<dim>1</dim>
				</port>
			</input>
			<output>
				<port id="2" precision="FP32" names="479">
					<dim>1</dim>
					<dim>240</dim>
					<dim>16</dim>
					<dim>16</dim>
				</port>
			</output>
		</layer>
		<layer id="194" name="Mul_136" type="HSwish" version="opset4">
			<input>
				<port id="0" precision="FP32">
					<dim>1</dim>
					<dim>240</dim>
					<dim>16</dim>
					<dim>16</dim>
				</port>
			</input>
			<output>
				<port id="1" precision="FP32" names="485">
					<dim>1</dim>
					<dim>240</dim>
					<dim>16</dim>
					<dim>16</dim>
				</port>
			</output>
		</layer>
		<layer id="195" name="Multiply_8635_compressed" type="Const" version="opset1">
			<data element_type="f16" shape="240, 1, 1, 3, 3" offset="139808" size="4320" />
			<output>
				<port id="0" precision="FP16">
					<dim>240</dim>
					<dim>1</dim>
					<dim>1</dim>
					<dim>3</dim>
					<dim>3</dim>
				</port>
			</output>
		</layer>
		<layer id="196" name="Multiply_8635" type="Convert" version="opset1">
			<data destination_type="f32" />
			<rt_info>
				<attribute name="decompression" version="0" />
			</rt_info>
			<input>
				<port id="0" precision="FP16">
					<dim>240</dim>
					<dim>1</dim>
					<dim>1</dim>
					<dim>3</dim>
					<dim>3</dim>
				</port>
			</input>
			<output>
				<port id="1" precision="FP32">
					<dim>240</dim>
					<dim>1</dim>
					<dim>1</dim>
					<dim>3</dim>
					<dim>3</dim>
				</port>
			</output>
		</layer>
		<layer id="197" name="Multiply_8367" type="GroupConvolution" version="opset1">
			<data strides="2, 2" pads_begin="1, 1" pads_end="1, 1" dilations="1, 1" auto_pad="explicit" />
			<input>
				<port id="0" precision="FP32">
					<dim>1</dim>
					<dim>240</dim>
					<dim>16</dim>
					<dim>16</dim>
				</port>
				<port id="1" precision="FP32">
					<dim>240</dim>
					<dim>1</dim>
					<dim>1</dim>
					<dim>3</dim>
					<dim>3</dim>
				</port>
			</input>
			<output>
				<port id="2" precision="FP32" names="486">
					<dim>1</dim>
					<dim>240</dim>
					<dim>8</dim>
					<dim>8</dim>
				</port>
			</output>
		</layer>
		<layer id="198" name="Constant_8372_compressed" type="Const" version="opset1">
			<data element_type="f16" shape="1, 240, 1, 1" offset="144128" size="480" />
			<output>
				<port id="0" precision="FP16">
					<dim>1</dim>
					<dim>240</dim>
					<dim>1</dim>
					<dim>1</dim>
				</port>
			</output>
		</layer>
		<layer id="199" name="Constant_8372" type="Convert" version="opset1">
			<data destination_type="f32" />
			<rt_info>
				<attribute name="decompression" version="0" />
			</rt_info>
			<input>
				<port id="0" precision="FP16">
					<dim>1</dim>
					<dim>240</dim>
					<dim>1</dim>
					<dim>1</dim>
				</port>
			</input>
			<output>
				<port id="1" precision="FP32">
					<dim>1</dim>
					<dim>240</dim>
					<dim>1</dim>
					<dim>1</dim>
				</port>
			</output>
		</layer>
		<layer id="200" name="BatchNormalization_138" type="Add" version="opset1">
			<data auto_broadcast="numpy" />
			<input>
				<port id="0" precision="FP32">
					<dim>1</dim>
					<dim>240</dim>
					<dim>8</dim>
					<dim>8</dim>
				</port>
				<port id="1" precision="FP32">
					<dim>1</dim>
					<dim>240</dim>
					<dim>1</dim>
					<dim>1</dim>
				</port>
			</input>
			<output>
				<port id="2" precision="FP32" names="487">
					<dim>1</dim>
					<dim>240</dim>
					<dim>8</dim>
					<dim>8</dim>
				</port>
			</output>
		</layer>
		<layer id="201" name="Mul_144" type="HSwish" version="opset4">
			<input>
				<port id="0" precision="FP32">
					<dim>1</dim>
					<dim>240</dim>
					<dim>8</dim>
					<dim>8</dim>
				</port>
			</input>
			<output>
				<port id="1" precision="FP32" names="493">
					<dim>1</dim>
					<dim>240</dim>
					<dim>8</dim>
					<dim>8</dim>
				</port>
			</output>
		</layer>
		<layer id="202" name="Multiply_8638_compressed" type="Const" version="opset1">
			<data element_type="f16" shape="80, 240, 1, 1" offset="144608" size="38400" />
			<output>
				<port id="0" precision="FP16">
					<dim>80</dim>
					<dim>240</dim>
					<dim>1</dim>
					<dim>1</dim>
				</port>
			</output>
		</layer>
		<layer id="203" name="Multiply_8638" type="Convert" version="opset1">
			<data destination_type="f32" />
			<rt_info>
				<attribute name="decompression" version="0" />
			</rt_info>
			<input>
				<port id="0" precision="FP16">
					<dim>80</dim>
					<dim>240</dim>
					<dim>1</dim>
					<dim>1</dim>
				</port>
			</input>
			<output>
				<port id="1" precision="FP32">
					<dim>80</dim>
					<dim>240</dim>
					<dim>1</dim>
					<dim>1</dim>
				</port>
			</output>
		</layer>
		<layer id="204" name="Multiply_8374" type="Convolution" version="opset1">
			<data strides="1, 1" dilations="1, 1" pads_begin="0, 0" pads_end="0, 0" auto_pad="explicit" />
			<input>
				<port id="0" precision="FP32">
					<dim>1</dim>
					<dim>240</dim>
					<dim>8</dim>
					<dim>8</dim>
				</port>
				<port id="1" precision="FP32">
					<dim>80</dim>
					<dim>240</dim>
					<dim>1</dim>
					<dim>1</dim>
				</port>
			</input>
			<output>
				<port id="2" precision="FP32">
					<dim>1</dim>
					<dim>80</dim>
					<dim>8</dim>
					<dim>8</dim>
				</port>
			</output>
		</layer>
		<layer id="205" name="Constant_8379_compressed" type="Const" version="opset1">
			<data element_type="f16" shape="1, 80, 1, 1" offset="183008" size="160" />
			<output>
				<port id="0" precision="FP16">
					<dim>1</dim>
					<dim>80</dim>
					<dim>1</dim>
					<dim>1</dim>
				</port>
			</output>
		</layer>
		<layer id="206" name="Constant_8379" type="Convert" version="opset1">
			<data destination_type="f32" />
			<rt_info>
				<attribute name="decompression" version="0" />
			</rt_info>
			<input>
				<port id="0" precision="FP16">
					<dim>1</dim>
					<dim>80</dim>
					<dim>1</dim>
					<dim>1</dim>
				</port>
			</input>
			<output>
				<port id="1" precision="FP32">
					<dim>1</dim>
					<dim>80</dim>
					<dim>1</dim>
					<dim>1</dim>
				</port>
			</output>
		</layer>
		<layer id="207" name="BatchNormalization_146" type="Add" version="opset1">
			<data auto_broadcast="numpy" />
			<input>
				<port id="0" precision="FP32">
					<dim>1</dim>
					<dim>80</dim>
					<dim>8</dim>
					<dim>8</dim>
				</port>
				<port id="1" precision="FP32">
					<dim>1</dim>
					<dim>80</dim>
					<dim>1</dim>
					<dim>1</dim>
				</port>
			</input>
			<output>
				<port id="2" precision="FP32" names="495">
					<dim>1</dim>
					<dim>80</dim>
					<dim>8</dim>
					<dim>8</dim>
				</port>
			</output>
		</layer>
		<layer id="208" name="Multiply_8642_compressed" type="Const" version="opset1">
			<data element_type="f16" shape="200, 80, 1, 1" offset="183168" size="32000" />
			<output>
				<port id="0" precision="FP16">
					<dim>200</dim>
					<dim>80</dim>
					<dim>1</dim>
					<dim>1</dim>
				</port>
			</output>
		</layer>
		<layer id="209" name="Multiply_8642" type="Convert" version="opset1">
			<data destination_type="f32" />
			<rt_info>
				<attribute name="decompression" version="0" />
			</rt_info>
			<input>
				<port id="0" precision="FP16">
					<dim>200</dim>
					<dim>80</dim>
					<dim>1</dim>
					<dim>1</dim>
				</port>
			</input>
			<output>
				<port id="1" precision="FP32">
					<dim>200</dim>
					<dim>80</dim>
					<dim>1</dim>
					<dim>1</dim>
				</port>
			</output>
		</layer>
		<layer id="210" name="Multiply_8381" type="Convolution" version="opset1">
			<data strides="1, 1" dilations="1, 1" pads_begin="0, 0" pads_end="0, 0" auto_pad="explicit" />
			<input>
				<port id="0" precision="FP32">
					<dim>1</dim>
					<dim>80</dim>
					<dim>8</dim>
					<dim>8</dim>
				</port>
				<port id="1" precision="FP32">
					<dim>200</dim>
					<dim>80</dim>
					<dim>1</dim>
					<dim>1</dim>
				</port>
			</input>
			<output>
				<port id="2" precision="FP32">
					<dim>1</dim>
					<dim>200</dim>
					<dim>8</dim>
					<dim>8</dim>
				</port>
			</output>
		</layer>
		<layer id="211" name="Constant_8386_compressed" type="Const" version="opset1">
			<data element_type="f16" shape="1, 200, 1, 1" offset="215168" size="400" />
			<output>
				<port id="0" precision="FP16">
					<dim>1</dim>
					<dim>200</dim>
					<dim>1</dim>
					<dim>1</dim>
				</port>
			</output>
		</layer>
		<layer id="212" name="Constant_8386" type="Convert" version="opset1">
			<data destination_type="f32" />
			<rt_info>
				<attribute name="decompression" version="0" />
			</rt_info>
			<input>
				<port id="0" precision="FP16">
					<dim>1</dim>
					<dim>200</dim>
					<dim>1</dim>
					<dim>1</dim>
				</port>
			</input>
			<output>
				<port id="1" precision="FP32">
					<dim>1</dim>
					<dim>200</dim>
					<dim>1</dim>
					<dim>1</dim>
				</port>
			</output>
		</layer>
		<layer id="213" name="BatchNormalization_148" type="Add" version="opset1">
			<data auto_broadcast="numpy" />
			<input>
				<port id="0" precision="FP32">
					<dim>1</dim>
					<dim>200</dim>
					<dim>8</dim>
					<dim>8</dim>
				</port>
				<port id="1" precision="FP32">
					<dim>1</dim>
					<dim>200</dim>
					<dim>1</dim>
					<dim>1</dim>
				</port>
			</input>
			<output>
				<port id="2" precision="FP32" names="497">
					<dim>1</dim>
					<dim>200</dim>
					<dim>8</dim>
					<dim>8</dim>
				</port>
			</output>
		</layer>
		<layer id="214" name="Mul_154" type="HSwish" version="opset4">
			<input>
				<port id="0" precision="FP32">
					<dim>1</dim>
					<dim>200</dim>
					<dim>8</dim>
					<dim>8</dim>
				</port>
			</input>
			<output>
				<port id="1" precision="FP32" names="503">
					<dim>1</dim>
					<dim>200</dim>
					<dim>8</dim>
					<dim>8</dim>
				</port>
			</output>
		</layer>
		<layer id="215" name="Multiply_8646_compressed" type="Const" version="opset1">
			<data element_type="f16" shape="200, 1, 1, 3, 3" offset="215568" size="3600" />
			<output>
				<port id="0" precision="FP16">
					<dim>200</dim>
					<dim>1</dim>
					<dim>1</dim>
					<dim>3</dim>
					<dim>3</dim>
				</port>
			</output>
		</layer>
		<layer id="216" name="Multiply_8646" type="Convert" version="opset1">
			<data destination_type="f32" />
			<rt_info>
				<attribute name="decompression" version="0" />
			</rt_info>
			<input>
				<port id="0" precision="FP16">
					<dim>200</dim>
					<dim>1</dim>
					<dim>1</dim>
					<dim>3</dim>
					<dim>3</dim>
				</port>
			</input>
			<output>
				<port id="1" precision="FP32">
					<dim>200</dim>
					<dim>1</dim>
					<dim>1</dim>
					<dim>3</dim>
					<dim>3</dim>
				</port>
			</output>
		</layer>
		<layer id="217" name="Multiply_8388" type="GroupConvolution" version="opset1">
			<data strides="1, 1" pads_begin="1, 1" pads_end="1, 1" dilations="1, 1" auto_pad="explicit" />
			<input>
				<port id="0" precision="FP32">
					<dim>1</dim>
					<dim>200</dim>
					<dim>8</dim>
					<dim>8</dim>
				</port>
				<port id="1" precision="FP32">
					<dim>200</dim>
					<dim>1</dim>
					<dim>1</dim>
					<dim>3</dim>
					<dim>3</dim>
				</port>
			</input>
			<output>
				<port id="2" precision="FP32" names="504">
					<dim>1</dim>
					<dim>200</dim>
					<dim>8</dim>
					<dim>8</dim>
				</port>
			</output>
		</layer>
		<layer id="218" name="Constant_8393_compressed" type="Const" version="opset1">
			<data element_type="f16" shape="1, 200, 1, 1" offset="219168" size="400" />
			<output>
				<port id="0" precision="FP16">
					<dim>1</dim>
					<dim>200</dim>
					<dim>1</dim>
					<dim>1</dim>
				</port>
			</output>
		</layer>
		<layer id="219" name="Constant_8393" type="Convert" version="opset1">
			<data destination_type="f32" />
			<rt_info>
				<attribute name="decompression" version="0" />
			</rt_info>
			<input>
				<port id="0" precision="FP16">
					<dim>1</dim>
					<dim>200</dim>
					<dim>1</dim>
					<dim>1</dim>
				</port>
			</input>
			<output>
				<port id="1" precision="FP32">
					<dim>1</dim>
					<dim>200</dim>
					<dim>1</dim>
					<dim>1</dim>
				</port>
			</output>
		</layer>
		<layer id="220" name="BatchNormalization_156" type="Add" version="opset1">
			<data auto_broadcast="numpy" />
			<input>
				<port id="0" precision="FP32">
					<dim>1</dim>
					<dim>200</dim>
					<dim>8</dim>
					<dim>8</dim>
				</port>
				<port id="1" precision="FP32">
					<dim>1</dim>
					<dim>200</dim>
					<dim>1</dim>
					<dim>1</dim>
				</port>
			</input>
			<output>
				<port id="2" precision="FP32" names="505">
					<dim>1</dim>
					<dim>200</dim>
					<dim>8</dim>
					<dim>8</dim>
				</port>
			</output>
		</layer>
		<layer id="221" name="Mul_162" type="HSwish" version="opset4">
			<input>
				<port id="0" precision="FP32">
					<dim>1</dim>
					<dim>200</dim>
					<dim>8</dim>
					<dim>8</dim>
				</port>
			</input>
			<output>
				<port id="1" precision="FP32" names="511">
					<dim>1</dim>
					<dim>200</dim>
					<dim>8</dim>
					<dim>8</dim>
				</port>
			</output>
		</layer>
		<layer id="222" name="Multiply_8649_compressed" type="Const" version="opset1">
			<data element_type="f16" shape="80, 200, 1, 1" offset="219568" size="32000" />
			<output>
				<port id="0" precision="FP16">
					<dim>80</dim>
					<dim>200</dim>
					<dim>1</dim>
					<dim>1</dim>
				</port>
			</output>
		</layer>
		<layer id="223" name="Multiply_8649" type="Convert" version="opset1">
			<data destination_type="f32" />
			<rt_info>
				<attribute name="decompression" version="0" />
			</rt_info>
			<input>
				<port id="0" precision="FP16">
					<dim>80</dim>
					<dim>200</dim>
					<dim>1</dim>
					<dim>1</dim>
				</port>
			</input>
			<output>
				<port id="1" precision="FP32">
					<dim>80</dim>
					<dim>200</dim>
					<dim>1</dim>
					<dim>1</dim>
				</port>
			</output>
		</layer>
		<layer id="224" name="Multiply_8395" type="Convolution" version="opset1">
			<data strides="1, 1" dilations="1, 1" pads_begin="0, 0" pads_end="0, 0" auto_pad="explicit" />
			<input>
				<port id="0" precision="FP32">
					<dim>1</dim>
					<dim>200</dim>
					<dim>8</dim>
					<dim>8</dim>
				</port>
				<port id="1" precision="FP32">
					<dim>80</dim>
					<dim>200</dim>
					<dim>1</dim>
					<dim>1</dim>
				</port>
			</input>
			<output>
				<port id="2" precision="FP32">
					<dim>1</dim>
					<dim>80</dim>
					<dim>8</dim>
					<dim>8</dim>
				</port>
			</output>
		</layer>
		<layer id="225" name="Constant_8400_compressed" type="Const" version="opset1">
			<data element_type="f16" shape="1, 80, 1, 1" offset="251568" size="160" />
			<output>
				<port id="0" precision="FP16">
					<dim>1</dim>
					<dim>80</dim>
					<dim>1</dim>
					<dim>1</dim>
				</port>
			</output>
		</layer>
		<layer id="226" name="Constant_8400" type="Convert" version="opset1">
			<data destination_type="f32" />
			<rt_info>
				<attribute name="decompression" version="0" />
			</rt_info>
			<input>
				<port id="0" precision="FP16">
					<dim>1</dim>
					<dim>80</dim>
					<dim>1</dim>
					<dim>1</dim>
				</port>
			</input>
			<output>
				<port id="1" precision="FP32">
					<dim>1</dim>
					<dim>80</dim>
					<dim>1</dim>
					<dim>1</dim>
				</port>
			</output>
		</layer>
		<layer id="227" name="BatchNormalization_164" type="Add" version="opset1">
			<data auto_broadcast="numpy" />
			<input>
				<port id="0" precision="FP32">
					<dim>1</dim>
					<dim>80</dim>
					<dim>8</dim>
					<dim>8</dim>
				</port>
				<port id="1" precision="FP32">
					<dim>1</dim>
					<dim>80</dim>
					<dim>1</dim>
					<dim>1</dim>
				</port>
			</input>
			<output>
				<port id="2" precision="FP32" names="513">
					<dim>1</dim>
					<dim>80</dim>
					<dim>8</dim>
					<dim>8</dim>
				</port>
			</output>
		</layer>
		<layer id="228" name="Add_165" type="Add" version="opset1">
			<data auto_broadcast="numpy" />
			<input>
				<port id="0" precision="FP32">
					<dim>1</dim>
					<dim>80</dim>
					<dim>8</dim>
					<dim>8</dim>
				</port>
				<port id="1" precision="FP32">
					<dim>1</dim>
					<dim>80</dim>
					<dim>8</dim>
					<dim>8</dim>
				</port>
			</input>
			<output>
				<port id="2" precision="FP32" names="514">
					<dim>1</dim>
					<dim>80</dim>
					<dim>8</dim>
					<dim>8</dim>
				</port>
			</output>
		</layer>
		<layer id="229" name="Multiply_8653_compressed" type="Const" version="opset1">
			<data element_type="f16" shape="184, 80, 1, 1" offset="251728" size="29440" />
			<output>
				<port id="0" precision="FP16">
					<dim>184</dim>
					<dim>80</dim>
					<dim>1</dim>
					<dim>1</dim>
				</port>
			</output>
		</layer>
		<layer id="230" name="Multiply_8653" type="Convert" version="opset1">
			<data destination_type="f32" />
			<rt_info>
				<attribute name="decompression" version="0" />
			</rt_info>
			<input>
				<port id="0" precision="FP16">
					<dim>184</dim>
					<dim>80</dim>
					<dim>1</dim>
					<dim>1</dim>
				</port>
			</input>
			<output>
				<port id="1" precision="FP32">
					<dim>184</dim>
					<dim>80</dim>
					<dim>1</dim>
					<dim>1</dim>
				</port>
			</output>
		</layer>
		<layer id="231" name="Multiply_8402" type="Convolution" version="opset1">
			<data strides="1, 1" dilations="1, 1" pads_begin="0, 0" pads_end="0, 0" auto_pad="explicit" />
			<input>
				<port id="0" precision="FP32">
					<dim>1</dim>
					<dim>80</dim>
					<dim>8</dim>
					<dim>8</dim>
				</port>
				<port id="1" precision="FP32">
					<dim>184</dim>
					<dim>80</dim>
					<dim>1</dim>
					<dim>1</dim>
				</port>
			</input>
			<output>
				<port id="2" precision="FP32">
					<dim>1</dim>
					<dim>184</dim>
					<dim>8</dim>
					<dim>8</dim>
				</port>
			</output>
		</layer>
		<layer id="232" name="Constant_8407_compressed" type="Const" version="opset1">
			<data element_type="f16" shape="1, 184, 1, 1" offset="281168" size="368" />
			<output>
				<port id="0" precision="FP16">
					<dim>1</dim>
					<dim>184</dim>
					<dim>1</dim>
					<dim>1</dim>
				</port>
			</output>
		</layer>
		<layer id="233" name="Constant_8407" type="Convert" version="opset1">
			<data destination_type="f32" />
			<rt_info>
				<attribute name="decompression" version="0" />
			</rt_info>
			<input>
				<port id="0" precision="FP16">
					<dim>1</dim>
					<dim>184</dim>
					<dim>1</dim>
					<dim>1</dim>
				</port>
			</input>
			<output>
				<port id="1" precision="FP32">
					<dim>1</dim>
					<dim>184</dim>
					<dim>1</dim>
					<dim>1</dim>
				</port>
			</output>
		</layer>
		<layer id="234" name="BatchNormalization_167" type="Add" version="opset1">
			<data auto_broadcast="numpy" />
			<input>
				<port id="0" precision="FP32">
					<dim>1</dim>
					<dim>184</dim>
					<dim>8</dim>
					<dim>8</dim>
				</port>
				<port id="1" precision="FP32">
					<dim>1</dim>
					<dim>184</dim>
					<dim>1</dim>
					<dim>1</dim>
				</port>
			</input>
			<output>
				<port id="2" precision="FP32" names="516">
					<dim>1</dim>
					<dim>184</dim>
					<dim>8</dim>
					<dim>8</dim>
				</port>
			</output>
		</layer>
		<layer id="235" name="Mul_173" type="HSwish" version="opset4">
			<input>
				<port id="0" precision="FP32">
					<dim>1</dim>
					<dim>184</dim>
					<dim>8</dim>
					<dim>8</dim>
				</port>
			</input>
			<output>
				<port id="1" precision="FP32" names="522">
					<dim>1</dim>
					<dim>184</dim>
					<dim>8</dim>
					<dim>8</dim>
				</port>
			</output>
		</layer>
		<layer id="236" name="Multiply_8657_compressed" type="Const" version="opset1">
			<data element_type="f16" shape="184, 1, 1, 3, 3" offset="281536" size="3312" />
			<output>
				<port id="0" precision="FP16">
					<dim>184</dim>
					<dim>1</dim>
					<dim>1</dim>
					<dim>3</dim>
					<dim>3</dim>
				</port>
			</output>
		</layer>
		<layer id="237" name="Multiply_8657" type="Convert" version="opset1">
			<data destination_type="f32" />
			<rt_info>
				<attribute name="decompression" version="0" />
			</rt_info>
			<input>
				<port id="0" precision="FP16">
					<dim>184</dim>
					<dim>1</dim>
					<dim>1</dim>
					<dim>3</dim>
					<dim>3</dim>
				</port>
			</input>
			<output>
				<port id="1" precision="FP32">
					<dim>184</dim>
					<dim>1</dim>
					<dim>1</dim>
					<dim>3</dim>
					<dim>3</dim>
				</port>
			</output>
		</layer>
		<layer id="238" name="Multiply_8409" type="GroupConvolution" version="opset1">
			<data strides="1, 1" pads_begin="1, 1" pads_end="1, 1" dilations="1, 1" auto_pad="explicit" />
			<input>
				<port id="0" precision="FP32">
					<dim>1</dim>
					<dim>184</dim>
					<dim>8</dim>
					<dim>8</dim>
				</port>
				<port id="1" precision="FP32">
					<dim>184</dim>
					<dim>1</dim>
					<dim>1</dim>
					<dim>3</dim>
					<dim>3</dim>
				</port>
			</input>
			<output>
				<port id="2" precision="FP32" names="523">
					<dim>1</dim>
					<dim>184</dim>
					<dim>8</dim>
					<dim>8</dim>
				</port>
			</output>
		</layer>
		<layer id="239" name="Constant_8414_compressed" type="Const" version="opset1">
			<data element_type="f16" shape="1, 184, 1, 1" offset="284848" size="368" />
			<output>
				<port id="0" precision="FP16">
					<dim>1</dim>
					<dim>184</dim>
					<dim>1</dim>
					<dim>1</dim>
				</port>
			</output>
		</layer>
		<layer id="240" name="Constant_8414" type="Convert" version="opset1">
			<data destination_type="f32" />
			<rt_info>
				<attribute name="decompression" version="0" />
			</rt_info>
			<input>
				<port id="0" precision="FP16">
					<dim>1</dim>
					<dim>184</dim>
					<dim>1</dim>
					<dim>1</dim>
				</port>
			</input>
			<output>
				<port id="1" precision="FP32">
					<dim>1</dim>
					<dim>184</dim>
					<dim>1</dim>
					<dim>1</dim>
				</port>
			</output>
		</layer>
		<layer id="241" name="BatchNormalization_175" type="Add" version="opset1">
			<data auto_broadcast="numpy" />
			<input>
				<port id="0" precision="FP32">
					<dim>1</dim>
					<dim>184</dim>
					<dim>8</dim>
					<dim>8</dim>
				</port>
				<port id="1" precision="FP32">
					<dim>1</dim>
					<dim>184</dim>
					<dim>1</dim>
					<dim>1</dim>
				</port>
			</input>
			<output>
				<port id="2" precision="FP32" names="524">
					<dim>1</dim>
					<dim>184</dim>
					<dim>8</dim>
					<dim>8</dim>
				</port>
			</output>
		</layer>
		<layer id="242" name="Mul_181" type="HSwish" version="opset4">
			<input>
				<port id="0" precision="FP32">
					<dim>1</dim>
					<dim>184</dim>
					<dim>8</dim>
					<dim>8</dim>
				</port>
			</input>
			<output>
				<port id="1" precision="FP32" names="530">
					<dim>1</dim>
					<dim>184</dim>
					<dim>8</dim>
					<dim>8</dim>
				</port>
			</output>
		</layer>
		<layer id="243" name="Multiply_8660_compressed" type="Const" version="opset1">
			<data element_type="f16" shape="80, 184, 1, 1" offset="285216" size="29440" />
			<output>
				<port id="0" precision="FP16">
					<dim>80</dim>
					<dim>184</dim>
					<dim>1</dim>
					<dim>1</dim>
				</port>
			</output>
		</layer>
		<layer id="244" name="Multiply_8660" type="Convert" version="opset1">
			<data destination_type="f32" />
			<rt_info>
				<attribute name="decompression" version="0" />
			</rt_info>
			<input>
				<port id="0" precision="FP16">
					<dim>80</dim>
					<dim>184</dim>
					<dim>1</dim>
					<dim>1</dim>
				</port>
			</input>
			<output>
				<port id="1" precision="FP32">
					<dim>80</dim>
					<dim>184</dim>
					<dim>1</dim>
					<dim>1</dim>
				</port>
			</output>
		</layer>
		<layer id="245" name="Multiply_8416" type="Convolution" version="opset1">
			<data strides="1, 1" dilations="1, 1" pads_begin="0, 0" pads_end="0, 0" auto_pad="explicit" />
			<input>
				<port id="0" precision="FP32">
					<dim>1</dim>
					<dim>184</dim>
					<dim>8</dim>
					<dim>8</dim>
				</port>
				<port id="1" precision="FP32">
					<dim>80</dim>
					<dim>184</dim>
					<dim>1</dim>
					<dim>1</dim>
				</port>
			</input>
			<output>
				<port id="2" precision="FP32">
					<dim>1</dim>
					<dim>80</dim>
					<dim>8</dim>
					<dim>8</dim>
				</port>
			</output>
		</layer>
		<layer id="246" name="Constant_8421_compressed" type="Const" version="opset1">
			<data element_type="f16" shape="1, 80, 1, 1" offset="314656" size="160" />
			<output>
				<port id="0" precision="FP16">
					<dim>1</dim>
					<dim>80</dim>
					<dim>1</dim>
					<dim>1</dim>
				</port>
			</output>
		</layer>
		<layer id="247" name="Constant_8421" type="Convert" version="opset1">
			<data destination_type="f32" />
			<rt_info>
				<attribute name="decompression" version="0" />
			</rt_info>
			<input>
				<port id="0" precision="FP16">
					<dim>1</dim>
					<dim>80</dim>
					<dim>1</dim>
					<dim>1</dim>
				</port>
			</input>
			<output>
				<port id="1" precision="FP32">
					<dim>1</dim>
					<dim>80</dim>
					<dim>1</dim>
					<dim>1</dim>
				</port>
			</output>
		</layer>
		<layer id="248" name="BatchNormalization_183" type="Add" version="opset1">
			<data auto_broadcast="numpy" />
			<input>
				<port id="0" precision="FP32">
					<dim>1</dim>
					<dim>80</dim>
					<dim>8</dim>
					<dim>8</dim>
				</port>
				<port id="1" precision="FP32">
					<dim>1</dim>
					<dim>80</dim>
					<dim>1</dim>
					<dim>1</dim>
				</port>
			</input>
			<output>
				<port id="2" precision="FP32" names="532">
					<dim>1</dim>
					<dim>80</dim>
					<dim>8</dim>
					<dim>8</dim>
				</port>
			</output>
		</layer>
		<layer id="249" name="Add_184" type="Add" version="opset1">
			<data auto_broadcast="numpy" />
			<input>
				<port id="0" precision="FP32">
					<dim>1</dim>
					<dim>80</dim>
					<dim>8</dim>
					<dim>8</dim>
				</port>
				<port id="1" precision="FP32">
					<dim>1</dim>
					<dim>80</dim>
					<dim>8</dim>
					<dim>8</dim>
				</port>
			</input>
			<output>
				<port id="2" precision="FP32" names="533">
					<dim>1</dim>
					<dim>80</dim>
					<dim>8</dim>
					<dim>8</dim>
				</port>
			</output>
		</layer>
		<layer id="250" name="Multiply_8664_compressed" type="Const" version="opset1">
			<data element_type="f16" shape="184, 80, 1, 1" offset="314816" size="29440" />
			<output>
				<port id="0" precision="FP16">
					<dim>184</dim>
					<dim>80</dim>
					<dim>1</dim>
					<dim>1</dim>
				</port>
			</output>
		</layer>
		<layer id="251" name="Multiply_8664" type="Convert" version="opset1">
			<data destination_type="f32" />
			<rt_info>
				<attribute name="decompression" version="0" />
			</rt_info>
			<input>
				<port id="0" precision="FP16">
					<dim>184</dim>
					<dim>80</dim>
					<dim>1</dim>
					<dim>1</dim>
				</port>
			</input>
			<output>
				<port id="1" precision="FP32">
					<dim>184</dim>
					<dim>80</dim>
					<dim>1</dim>
					<dim>1</dim>
				</port>
			</output>
		</layer>
		<layer id="252" name="Multiply_8423" type="Convolution" version="opset1">
			<data strides="1, 1" dilations="1, 1" pads_begin="0, 0" pads_end="0, 0" auto_pad="explicit" />
			<input>
				<port id="0" precision="FP32">
					<dim>1</dim>
					<dim>80</dim>
					<dim>8</dim>
					<dim>8</dim>
				</port>
				<port id="1" precision="FP32">
					<dim>184</dim>
					<dim>80</dim>
					<dim>1</dim>
					<dim>1</dim>
				</port>
			</input>
			<output>
				<port id="2" precision="FP32">
					<dim>1</dim>
					<dim>184</dim>
					<dim>8</dim>
					<dim>8</dim>
				</port>
			</output>
		</layer>
		<layer id="253" name="Constant_8428_compressed" type="Const" version="opset1">
			<data element_type="f16" shape="1, 184, 1, 1" offset="344256" size="368" />
			<output>
				<port id="0" precision="FP16">
					<dim>1</dim>
					<dim>184</dim>
					<dim>1</dim>
					<dim>1</dim>
				</port>
			</output>
		</layer>
		<layer id="254" name="Constant_8428" type="Convert" version="opset1">
			<data destination_type="f32" />
			<rt_info>
				<attribute name="decompression" version="0" />
			</rt_info>
			<input>
				<port id="0" precision="FP16">
					<dim>1</dim>
					<dim>184</dim>
					<dim>1</dim>
					<dim>1</dim>
				</port>
			</input>
			<output>
				<port id="1" precision="FP32">
					<dim>1</dim>
					<dim>184</dim>
					<dim>1</dim>
					<dim>1</dim>
				</port>
			</output>
		</layer>
		<layer id="255" name="BatchNormalization_186" type="Add" version="opset1">
			<data auto_broadcast="numpy" />
			<input>
				<port id="0" precision="FP32">
					<dim>1</dim>
					<dim>184</dim>
					<dim>8</dim>
					<dim>8</dim>
				</port>
				<port id="1" precision="FP32">
					<dim>1</dim>
					<dim>184</dim>
					<dim>1</dim>
					<dim>1</dim>
				</port>
			</input>
			<output>
				<port id="2" precision="FP32" names="535">
					<dim>1</dim>
					<dim>184</dim>
					<dim>8</dim>
					<dim>8</dim>
				</port>
			</output>
		</layer>
		<layer id="256" name="Mul_192" type="HSwish" version="opset4">
			<input>
				<port id="0" precision="FP32">
					<dim>1</dim>
					<dim>184</dim>
					<dim>8</dim>
					<dim>8</dim>
				</port>
			</input>
			<output>
				<port id="1" precision="FP32" names="541">
					<dim>1</dim>
					<dim>184</dim>
					<dim>8</dim>
					<dim>8</dim>
				</port>
			</output>
		</layer>
		<layer id="257" name="Multiply_8668_compressed" type="Const" version="opset1">
			<data element_type="f16" shape="184, 1, 1, 3, 3" offset="344624" size="3312" />
			<output>
				<port id="0" precision="FP16">
					<dim>184</dim>
					<dim>1</dim>
					<dim>1</dim>
					<dim>3</dim>
					<dim>3</dim>
				</port>
			</output>
		</layer>
		<layer id="258" name="Multiply_8668" type="Convert" version="opset1">
			<data destination_type="f32" />
			<rt_info>
				<attribute name="decompression" version="0" />
			</rt_info>
			<input>
				<port id="0" precision="FP16">
					<dim>184</dim>
					<dim>1</dim>
					<dim>1</dim>
					<dim>3</dim>
					<dim>3</dim>
				</port>
			</input>
			<output>
				<port id="1" precision="FP32">
					<dim>184</dim>
					<dim>1</dim>
					<dim>1</dim>
					<dim>3</dim>
					<dim>3</dim>
				</port>
			</output>
		</layer>
		<layer id="259" name="Multiply_8430" type="GroupConvolution" version="opset1">
			<data strides="1, 1" pads_begin="1, 1" pads_end="1, 1" dilations="1, 1" auto_pad="explicit" />
			<input>
				<port id="0" precision="FP32">
					<dim>1</dim>
					<dim>184</dim>
					<dim>8</dim>
					<dim>8</dim>
				</port>
				<port id="1" precision="FP32">
					<dim>184</dim>
					<dim>1</dim>
					<dim>1</dim>
					<dim>3</dim>
					<dim>3</dim>
				</port>
			</input>
			<output>
				<port id="2" precision="FP32" names="542">
					<dim>1</dim>
					<dim>184</dim>
					<dim>8</dim>
					<dim>8</dim>
				</port>
			</output>
		</layer>
		<layer id="260" name="Constant_8435_compressed" type="Const" version="opset1">
			<data element_type="f16" shape="1, 184, 1, 1" offset="347936" size="368" />
			<output>
				<port id="0" precision="FP16">
					<dim>1</dim>
					<dim>184</dim>
					<dim>1</dim>
					<dim>1</dim>
				</port>
			</output>
		</layer>
		<layer id="261" name="Constant_8435" type="Convert" version="opset1">
			<data destination_type="f32" />
			<rt_info>
				<attribute name="decompression" version="0" />
			</rt_info>
			<input>
				<port id="0" precision="FP16">
					<dim>1</dim>
					<dim>184</dim>
					<dim>1</dim>
					<dim>1</dim>
				</port>
			</input>
			<output>
				<port id="1" precision="FP32">
					<dim>1</dim>
					<dim>184</dim>
					<dim>1</dim>
					<dim>1</dim>
				</port>
			</output>
		</layer>
		<layer id="262" name="BatchNormalization_194" type="Add" version="opset1">
			<data auto_broadcast="numpy" />
			<input>
				<port id="0" precision="FP32">
					<dim>1</dim>
					<dim>184</dim>
					<dim>8</dim>
					<dim>8</dim>
				</port>
				<port id="1" precision="FP32">
					<dim>1</dim>
					<dim>184</dim>
					<dim>1</dim>
					<dim>1</dim>
				</port>
			</input>
			<output>
				<port id="2" precision="FP32" names="543">
					<dim>1</dim>
					<dim>184</dim>
					<dim>8</dim>
					<dim>8</dim>
				</port>
			</output>
		</layer>
		<layer id="263" name="Mul_200" type="HSwish" version="opset4">
			<input>
				<port id="0" precision="FP32">
					<dim>1</dim>
					<dim>184</dim>
					<dim>8</dim>
					<dim>8</dim>
				</port>
			</input>
			<output>
				<port id="1" precision="FP32" names="549">
					<dim>1</dim>
					<dim>184</dim>
					<dim>8</dim>
					<dim>8</dim>
				</port>
			</output>
		</layer>
		<layer id="264" name="Multiply_8671_compressed" type="Const" version="opset1">
			<data element_type="f16" shape="80, 184, 1, 1" offset="348304" size="29440" />
			<output>
				<port id="0" precision="FP16">
					<dim>80</dim>
					<dim>184</dim>
					<dim>1</dim>
					<dim>1</dim>
				</port>
			</output>
		</layer>
		<layer id="265" name="Multiply_8671" type="Convert" version="opset1">
			<data destination_type="f32" />
			<rt_info>
				<attribute name="decompression" version="0" />
			</rt_info>
			<input>
				<port id="0" precision="FP16">
					<dim>80</dim>
					<dim>184</dim>
					<dim>1</dim>
					<dim>1</dim>
				</port>
			</input>
			<output>
				<port id="1" precision="FP32">
					<dim>80</dim>
					<dim>184</dim>
					<dim>1</dim>
					<dim>1</dim>
				</port>
			</output>
		</layer>
		<layer id="266" name="Multiply_8437" type="Convolution" version="opset1">
			<data strides="1, 1" dilations="1, 1" pads_begin="0, 0" pads_end="0, 0" auto_pad="explicit" />
			<input>
				<port id="0" precision="FP32">
					<dim>1</dim>
					<dim>184</dim>
					<dim>8</dim>
					<dim>8</dim>
				</port>
				<port id="1" precision="FP32">
					<dim>80</dim>
					<dim>184</dim>
					<dim>1</dim>
					<dim>1</dim>
				</port>
			</input>
			<output>
				<port id="2" precision="FP32">
					<dim>1</dim>
					<dim>80</dim>
					<dim>8</dim>
					<dim>8</dim>
				</port>
			</output>
		</layer>
		<layer id="267" name="Constant_8442_compressed" type="Const" version="opset1">
			<data element_type="f16" shape="1, 80, 1, 1" offset="377744" size="160" />
			<output>
				<port id="0" precision="FP16">
					<dim>1</dim>
					<dim>80</dim>
					<dim>1</dim>
					<dim>1</dim>
				</port>
			</output>
		</layer>
		<layer id="268" name="Constant_8442" type="Convert" version="opset1">
			<data destination_type="f32" />
			<rt_info>
				<attribute name="decompression" version="0" />
			</rt_info>
			<input>
				<port id="0" precision="FP16">
					<dim>1</dim>
					<dim>80</dim>
					<dim>1</dim>
					<dim>1</dim>
				</port>
			</input>
			<output>
				<port id="1" precision="FP32">
					<dim>1</dim>
					<dim>80</dim>
					<dim>1</dim>
					<dim>1</dim>
				</port>
			</output>
		</layer>
		<layer id="269" name="BatchNormalization_202" type="Add" version="opset1">
			<data auto_broadcast="numpy" />
			<input>
				<port id="0" precision="FP32">
					<dim>1</dim>
					<dim>80</dim>
					<dim>8</dim>
					<dim>8</dim>
				</port>
				<port id="1" precision="FP32">
					<dim>1</dim>
					<dim>80</dim>
					<dim>1</dim>
					<dim>1</dim>
				</port>
			</input>
			<output>
				<port id="2" precision="FP32" names="551">
					<dim>1</dim>
					<dim>80</dim>
					<dim>8</dim>
					<dim>8</dim>
				</port>
			</output>
		</layer>
		<layer id="270" name="Add_203" type="Add" version="opset1">
			<data auto_broadcast="numpy" />
			<input>
				<port id="0" precision="FP32">
					<dim>1</dim>
					<dim>80</dim>
					<dim>8</dim>
					<dim>8</dim>
				</port>
				<port id="1" precision="FP32">
					<dim>1</dim>
					<dim>80</dim>
					<dim>8</dim>
					<dim>8</dim>
				</port>
			</input>
			<output>
				<port id="2" precision="FP32" names="552">
					<dim>1</dim>
					<dim>80</dim>
					<dim>8</dim>
					<dim>8</dim>
				</port>
			</output>
		</layer>
		<layer id="271" name="Multiply_8675_compressed" type="Const" version="opset1">
			<data element_type="f16" shape="480, 80, 1, 1" offset="377904" size="76800" />
			<output>
				<port id="0" precision="FP16">
					<dim>480</dim>
					<dim>80</dim>
					<dim>1</dim>
					<dim>1</dim>
				</port>
			</output>
		</layer>
		<layer id="272" name="Multiply_8675" type="Convert" version="opset1">
			<data destination_type="f32" />
			<rt_info>
				<attribute name="decompression" version="0" />
			</rt_info>
			<input>
				<port id="0" precision="FP16">
					<dim>480</dim>
					<dim>80</dim>
					<dim>1</dim>
					<dim>1</dim>
				</port>
			</input>
			<output>
				<port id="1" precision="FP32">
					<dim>480</dim>
					<dim>80</dim>
					<dim>1</dim>
					<dim>1</dim>
				</port>
			</output>
		</layer>
		<layer id="273" name="Multiply_8444" type="Convolution" version="opset1">
			<data strides="1, 1" dilations="1, 1" pads_begin="0, 0" pads_end="0, 0" auto_pad="explicit" />
			<input>
				<port id="0" precision="FP32">
					<dim>1</dim>
					<dim>80</dim>
					<dim>8</dim>
					<dim>8</dim>
				</port>
				<port id="1" precision="FP32">
					<dim>480</dim>
					<dim>80</dim>
					<dim>1</dim>
					<dim>1</dim>
				</port>
			</input>
			<output>
				<port id="2" precision="FP32">
					<dim>1</dim>
					<dim>480</dim>
					<dim>8</dim>
					<dim>8</dim>
				</port>
			</output>
		</layer>
		<layer id="274" name="Constant_8449_compressed" type="Const" version="opset1">
			<data element_type="f16" shape="1, 480, 1, 1" offset="454704" size="960" />
			<output>
				<port id="0" precision="FP16">
					<dim>1</dim>
					<dim>480</dim>
					<dim>1</dim>
					<dim>1</dim>
				</port>
			</output>
		</layer>
		<layer id="275" name="Constant_8449" type="Convert" version="opset1">
			<data destination_type="f32" />
			<rt_info>
				<attribute name="decompression" version="0" />
			</rt_info>
			<input>
				<port id="0" precision="FP16">
					<dim>1</dim>
					<dim>480</dim>
					<dim>1</dim>
					<dim>1</dim>
				</port>
			</input>
			<output>
				<port id="1" precision="FP32">
					<dim>1</dim>
					<dim>480</dim>
					<dim>1</dim>
					<dim>1</dim>
				</port>
			</output>
		</layer>
		<layer id="276" name="BatchNormalization_205" type="Add" version="opset1">
			<data auto_broadcast="numpy" />
			<input>
				<port id="0" precision="FP32">
					<dim>1</dim>
					<dim>480</dim>
					<dim>8</dim>
					<dim>8</dim>
				</port>
				<port id="1" precision="FP32">
					<dim>1</dim>
					<dim>480</dim>
					<dim>1</dim>
					<dim>1</dim>
				</port>
			</input>
			<output>
				<port id="2" precision="FP32" names="554">
					<dim>1</dim>
					<dim>480</dim>
					<dim>8</dim>
					<dim>8</dim>
				</port>
			</output>
		</layer>
		<layer id="277" name="Mul_211" type="HSwish" version="opset4">
			<input>
				<port id="0" precision="FP32">
					<dim>1</dim>
					<dim>480</dim>
					<dim>8</dim>
					<dim>8</dim>
				</port>
			</input>
			<output>
				<port id="1" precision="FP32" names="560">
					<dim>1</dim>
					<dim>480</dim>
					<dim>8</dim>
					<dim>8</dim>
				</port>
			</output>
		</layer>
		<layer id="278" name="Multiply_8679_compressed" type="Const" version="opset1">
			<data element_type="f16" shape="480, 1, 1, 3, 3" offset="455664" size="8640" />
			<output>
				<port id="0" precision="FP16">
					<dim>480</dim>
					<dim>1</dim>
					<dim>1</dim>
					<dim>3</dim>
					<dim>3</dim>
				</port>
			</output>
		</layer>
		<layer id="279" name="Multiply_8679" type="Convert" version="opset1">
			<data destination_type="f32" />
			<rt_info>
				<attribute name="decompression" version="0" />
			</rt_info>
			<input>
				<port id="0" precision="FP16">
					<dim>480</dim>
					<dim>1</dim>
					<dim>1</dim>
					<dim>3</dim>
					<dim>3</dim>
				</port>
			</input>
			<output>
				<port id="1" precision="FP32">
					<dim>480</dim>
					<dim>1</dim>
					<dim>1</dim>
					<dim>3</dim>
					<dim>3</dim>
				</port>
			</output>
		</layer>
		<layer id="280" name="Multiply_8451" type="GroupConvolution" version="opset1">
			<data strides="1, 1" pads_begin="1, 1" pads_end="1, 1" dilations="1, 1" auto_pad="explicit" />
			<input>
				<port id="0" precision="FP32">
					<dim>1</dim>
					<dim>480</dim>
					<dim>8</dim>
					<dim>8</dim>
				</port>
				<port id="1" precision="FP32">
					<dim>480</dim>
					<dim>1</dim>
					<dim>1</dim>
					<dim>3</dim>
					<dim>3</dim>
				</port>
			</input>
			<output>
				<port id="2" precision="FP32" names="561">
					<dim>1</dim>
					<dim>480</dim>
					<dim>8</dim>
					<dim>8</dim>
				</port>
			</output>
		</layer>
		<layer id="281" name="Constant_8456_compressed" type="Const" version="opset1">
			<data element_type="f16" shape="1, 480, 1, 1" offset="464304" size="960" />
			<output>
				<port id="0" precision="FP16">
					<dim>1</dim>
					<dim>480</dim>
					<dim>1</dim>
					<dim>1</dim>
				</port>
			</output>
		</layer>
		<layer id="282" name="Constant_8456" type="Convert" version="opset1">
			<data destination_type="f32" />
			<rt_info>
				<attribute name="decompression" version="0" />
			</rt_info>
			<input>
				<port id="0" precision="FP16">
					<dim>1</dim>
					<dim>480</dim>
					<dim>1</dim>
					<dim>1</dim>
				</port>
			</input>
			<output>
				<port id="1" precision="FP32">
					<dim>1</dim>
					<dim>480</dim>
					<dim>1</dim>
					<dim>1</dim>
				</port>
			</output>
		</layer>
		<layer id="283" name="BatchNormalization_213" type="Add" version="opset1">
			<data auto_broadcast="numpy" />
			<input>
				<port id="0" precision="FP32">
					<dim>1</dim>
					<dim>480</dim>
					<dim>8</dim>
					<dim>8</dim>
				</port>
				<port id="1" precision="FP32">
					<dim>1</dim>
					<dim>480</dim>
					<dim>1</dim>
					<dim>1</dim>
				</port>
			</input>
			<output>
				<port id="2" precision="FP32" names="562">
					<dim>1</dim>
					<dim>480</dim>
					<dim>8</dim>
					<dim>8</dim>
				</port>
			</output>
		</layer>
		<layer id="284" name="Range_1128" type="Const" version="opset1">
			<data element_type="i64" shape="2" offset="24224" size="16" />
			<output>
				<port id="0" precision="I64">
					<dim>2</dim>
				</port>
			</output>
		</layer>
		<layer id="285" name="GlobalAveragePool_220" type="ReduceMean" version="opset1">
			<data keep_dims="true" />
			<input>
				<port id="0" precision="FP32">
					<dim>1</dim>
					<dim>480</dim>
					<dim>8</dim>
					<dim>8</dim>
				</port>
				<port id="1" precision="I64">
					<dim>2</dim>
				</port>
			</input>
			<output>
				<port id="2" precision="FP32" names="569">
					<dim>1</dim>
					<dim>480</dim>
					<dim>1</dim>
					<dim>1</dim>
				</port>
			</output>
		</layer>
		<layer id="286" name="Concat_2374" type="Const" version="opset1">
			<data element_type="i64" shape="2" offset="465264" size="16" />
			<rt_info>
				<attribute name="precise" version="0" />
			</rt_info>
			<output>
				<port id="0" precision="I64">
					<dim>2</dim>
				</port>
			</output>
		</layer>
		<layer id="287" name="Reshape_224" type="Reshape" version="opset1">
			<data special_zero="true" />
			<input>
				<port id="0" precision="FP32">
					<dim>1</dim>
					<dim>480</dim>
					<dim>1</dim>
					<dim>1</dim>
				</port>
				<port id="1" precision="I64">
					<dim>2</dim>
				</port>
			</input>
			<output>
				<port id="2" precision="FP32" names="573">
					<dim>1</dim>
					<dim>480</dim>
				</port>
			</output>
		</layer>
		<layer id="288" name="features.11.conv.5.fc.0.weight_compressed" type="Const" version="opset1">
			<data element_type="f16" shape="120, 480" offset="465280" size="115200" />
			<output>
				<port id="0" precision="FP16" names="features.11.conv.5.fc.0.weight">
					<dim>120</dim>
					<dim>480</dim>
				</port>
			</output>
		</layer>
		<layer id="289" name="features.11.conv.5.fc.0.weight" type="Convert" version="opset1">
			<data destination_type="f32" />
			<rt_info>
				<attribute name="decompression" version="0" />
			</rt_info>
			<input>
				<port id="0" precision="FP16">
					<dim>120</dim>
					<dim>480</dim>
				</port>
			</input>
			<output>
				<port id="1" precision="FP32">
					<dim>120</dim>
					<dim>480</dim>
				</port>
			</output>
		</layer>
		<layer id="290" name="Gemm_225/WithoutBiases" type="MatMul" version="opset1">
			<data transpose_a="false" transpose_b="true" />
			<input>
				<port id="0" precision="FP32">
					<dim>1</dim>
					<dim>480</dim>
				</port>
				<port id="1" precision="FP32">
					<dim>120</dim>
					<dim>480</dim>
				</port>
			</input>
			<output>
				<port id="2" precision="FP32">
					<dim>1</dim>
					<dim>120</dim>
				</port>
			</output>
		</layer>
		<layer id="291" name="Constant_8926_compressed" type="Const" version="opset1">
			<data element_type="f16" shape="1, 120" offset="580480" size="240" />
			<output>
				<port id="0" precision="FP16">
					<dim>1</dim>
					<dim>120</dim>
				</port>
			</output>
		</layer>
		<layer id="292" name="Constant_8926" type="Convert" version="opset1">
			<data destination_type="f32" />
			<rt_info>
				<attribute name="decompression" version="0" />
			</rt_info>
			<input>
				<port id="0" precision="FP16">
					<dim>1</dim>
					<dim>120</dim>
				</port>
			</input>
			<output>
				<port id="1" precision="FP32">
					<dim>1</dim>
					<dim>120</dim>
				</port>
			</output>
		</layer>
		<layer id="293" name="Gemm_225" type="Add" version="opset1">
			<data auto_broadcast="numpy" />
			<input>
				<port id="0" precision="FP32">
					<dim>1</dim>
					<dim>120</dim>
				</port>
				<port id="1" precision="FP32">
					<dim>1</dim>
					<dim>120</dim>
				</port>
			</input>
			<output>
				<port id="2" precision="FP32" names="574">
					<dim>1</dim>
					<dim>120</dim>
				</port>
			</output>
		</layer>
		<layer id="294" name="Relu_226" type="ReLU" version="opset1">
			<input>
				<port id="0" precision="FP32">
					<dim>1</dim>
					<dim>120</dim>
				</port>
			</input>
			<output>
				<port id="1" precision="FP32" names="575">
					<dim>1</dim>
					<dim>120</dim>
				</port>
			</output>
		</layer>
		<layer id="295" name="features.11.conv.5.fc.2.weight_compressed" type="Const" version="opset1">
			<data element_type="f16" shape="480, 120" offset="580720" size="115200" />
			<output>
				<port id="0" precision="FP16" names="features.11.conv.5.fc.2.weight">
					<dim>480</dim>
					<dim>120</dim>
				</port>
			</output>
		</layer>
		<layer id="296" name="features.11.conv.5.fc.2.weight" type="Convert" version="opset1">
			<data destination_type="f32" />
			<rt_info>
				<attribute name="decompression" version="0" />
			</rt_info>
			<input>
				<port id="0" precision="FP16">
					<dim>480</dim>
					<dim>120</dim>
				</port>
			</input>
			<output>
				<port id="1" precision="FP32">
					<dim>480</dim>
					<dim>120</dim>
				</port>
			</output>
		</layer>
		<layer id="297" name="Gemm_227/WithoutBiases" type="MatMul" version="opset1">
			<data transpose_a="false" transpose_b="true" />
			<input>
				<port id="0" precision="FP32">
					<dim>1</dim>
					<dim>120</dim>
				</port>
				<port id="1" precision="FP32">
					<dim>480</dim>
					<dim>120</dim>
				</port>
			</input>
			<output>
				<port id="2" precision="FP32">
					<dim>1</dim>
					<dim>480</dim>
				</port>
			</output>
		</layer>
		<layer id="298" name="Constant_8927_compressed" type="Const" version="opset1">
			<data element_type="f16" shape="1, 480" offset="695920" size="960" />
			<output>
				<port id="0" precision="FP16">
					<dim>1</dim>
					<dim>480</dim>
				</port>
			</output>
		</layer>
		<layer id="299" name="Constant_8927" type="Convert" version="opset1">
			<data destination_type="f32" />
			<rt_info>
				<attribute name="decompression" version="0" />
			</rt_info>
			<input>
				<port id="0" precision="FP16">
					<dim>1</dim>
					<dim>480</dim>
				</port>
			</input>
			<output>
				<port id="1" precision="FP32">
					<dim>1</dim>
					<dim>480</dim>
				</port>
			</output>
		</layer>
		<layer id="300" name="Gemm_227" type="Add" version="opset1">
			<data auto_broadcast="numpy" />
			<input>
				<port id="0" precision="FP32">
					<dim>1</dim>
					<dim>480</dim>
				</port>
				<port id="1" precision="FP32">
					<dim>1</dim>
					<dim>480</dim>
				</port>
			</input>
			<output>
				<port id="2" precision="FP32" names="576">
					<dim>1</dim>
					<dim>480</dim>
				</port>
			</output>
		</layer>
		<layer id="301" name="Div_232" type="HSigmoid" version="opset5">
			<input>
				<port id="0" precision="FP32">
					<dim>1</dim>
					<dim>480</dim>
				</port>
			</input>
			<output>
				<port id="1" precision="FP32" names="581">
					<dim>1</dim>
					<dim>480</dim>
				</port>
			</output>
		</layer>
		<layer id="302" name="Constant_9032" type="Const" version="opset1">
			<data element_type="i64" shape="4" offset="696880" size="32" />
			<rt_info>
				<attribute name="precise" version="0" />
			</rt_info>
			<output>
				<port id="0" precision="I64">
					<dim>4</dim>
				</port>
			</output>
		</layer>
		<layer id="303" name="Reshape_236" type="Reshape" version="opset1">
			<data special_zero="true" />
			<input>
				<port id="0" precision="FP32">
					<dim>1</dim>
					<dim>480</dim>
				</port>
				<port id="1" precision="I64">
					<dim>4</dim>
				</port>
			</input>
			<output>
				<port id="2" precision="FP32" names="589">
					<dim>1</dim>
					<dim>480</dim>
					<dim>1</dim>
					<dim>1</dim>
				</port>
			</output>
		</layer>
		<layer id="304" name="Mul_237" type="Multiply" version="opset1">
			<data auto_broadcast="numpy" />
			<input>
				<port id="0" precision="FP32">
					<dim>1</dim>
					<dim>480</dim>
					<dim>8</dim>
					<dim>8</dim>
				</port>
				<port id="1" precision="FP32">
					<dim>1</dim>
					<dim>480</dim>
					<dim>1</dim>
					<dim>1</dim>
				</port>
			</input>
			<output>
				<port id="2" precision="FP32" names="590">
					<dim>1</dim>
					<dim>480</dim>
					<dim>8</dim>
					<dim>8</dim>
				</port>
			</output>
		</layer>
		<layer id="305" name="Mul_243" type="HSwish" version="opset4">
			<input>
				<port id="0" precision="FP32">
					<dim>1</dim>
					<dim>480</dim>
					<dim>8</dim>
					<dim>8</dim>
				</port>
			</input>
			<output>
				<port id="1" precision="FP32" names="596">
					<dim>1</dim>
					<dim>480</dim>
					<dim>8</dim>
					<dim>8</dim>
				</port>
			</output>
		</layer>
		<layer id="306" name="Multiply_8682_compressed" type="Const" version="opset1">
			<data element_type="f16" shape="112, 480, 1, 1" offset="696912" size="107520" />
			<output>
				<port id="0" precision="FP16">
					<dim>112</dim>
					<dim>480</dim>
					<dim>1</dim>
					<dim>1</dim>
				</port>
			</output>
		</layer>
		<layer id="307" name="Multiply_8682" type="Convert" version="opset1">
			<data destination_type="f32" />
			<rt_info>
				<attribute name="decompression" version="0" />
			</rt_info>
			<input>
				<port id="0" precision="FP16">
					<dim>112</dim>
					<dim>480</dim>
					<dim>1</dim>
					<dim>1</dim>
				</port>
			</input>
			<output>
				<port id="1" precision="FP32">
					<dim>112</dim>
					<dim>480</dim>
					<dim>1</dim>
					<dim>1</dim>
				</port>
			</output>
		</layer>
		<layer id="308" name="Multiply_8458" type="Convolution" version="opset1">
			<data strides="1, 1" dilations="1, 1" pads_begin="0, 0" pads_end="0, 0" auto_pad="explicit" />
			<input>
				<port id="0" precision="FP32">
					<dim>1</dim>
					<dim>480</dim>
					<dim>8</dim>
					<dim>8</dim>
				</port>
				<port id="1" precision="FP32">
					<dim>112</dim>
					<dim>480</dim>
					<dim>1</dim>
					<dim>1</dim>
				</port>
			</input>
			<output>
				<port id="2" precision="FP32">
					<dim>1</dim>
					<dim>112</dim>
					<dim>8</dim>
					<dim>8</dim>
				</port>
			</output>
		</layer>
		<layer id="309" name="Constant_8463_compressed" type="Const" version="opset1">
			<data element_type="f16" shape="1, 112, 1, 1" offset="804432" size="224" />
			<output>
				<port id="0" precision="FP16">
					<dim>1</dim>
					<dim>112</dim>
					<dim>1</dim>
					<dim>1</dim>
				</port>
			</output>
		</layer>
		<layer id="310" name="Constant_8463" type="Convert" version="opset1">
			<data destination_type="f32" />
			<rt_info>
				<attribute name="decompression" version="0" />
			</rt_info>
			<input>
				<port id="0" precision="FP16">
					<dim>1</dim>
					<dim>112</dim>
					<dim>1</dim>
					<dim>1</dim>
				</port>
			</input>
			<output>
				<port id="1" precision="FP32">
					<dim>1</dim>
					<dim>112</dim>
					<dim>1</dim>
					<dim>1</dim>
				</port>
			</output>
		</layer>
		<layer id="311" name="BatchNormalization_245" type="Add" version="opset1">
			<data auto_broadcast="numpy" />
			<input>
				<port id="0" precision="FP32">
					<dim>1</dim>
					<dim>112</dim>
					<dim>8</dim>
					<dim>8</dim>
				</port>
				<port id="1" precision="FP32">
					<dim>1</dim>
					<dim>112</dim>
					<dim>1</dim>
					<dim>1</dim>
				</port>
			</input>
			<output>
				<port id="2" precision="FP32" names="598">
					<dim>1</dim>
					<dim>112</dim>
					<dim>8</dim>
					<dim>8</dim>
				</port>
			</output>
		</layer>
		<layer id="312" name="Multiply_8686_compressed" type="Const" version="opset1">
			<data element_type="f16" shape="672, 112, 1, 1" offset="804656" size="150528" />
			<output>
				<port id="0" precision="FP16">
					<dim>672</dim>
					<dim>112</dim>
					<dim>1</dim>
					<dim>1</dim>
				</port>
			</output>
		</layer>
		<layer id="313" name="Multiply_8686" type="Convert" version="opset1">
			<data destination_type="f32" />
			<rt_info>
				<attribute name="decompression" version="0" />
			</rt_info>
			<input>
				<port id="0" precision="FP16">
					<dim>672</dim>
					<dim>112</dim>
					<dim>1</dim>
					<dim>1</dim>
				</port>
			</input>
			<output>
				<port id="1" precision="FP32">
					<dim>672</dim>
					<dim>112</dim>
					<dim>1</dim>
					<dim>1</dim>
				</port>
			</output>
		</layer>
		<layer id="314" name="Multiply_8465" type="Convolution" version="opset1">
			<data strides="1, 1" dilations="1, 1" pads_begin="0, 0" pads_end="0, 0" auto_pad="explicit" />
			<input>
				<port id="0" precision="FP32">
					<dim>1</dim>
					<dim>112</dim>
					<dim>8</dim>
					<dim>8</dim>
				</port>
				<port id="1" precision="FP32">
					<dim>672</dim>
					<dim>112</dim>
					<dim>1</dim>
					<dim>1</dim>
				</port>
			</input>
			<output>
				<port id="2" precision="FP32">
					<dim>1</dim>
					<dim>672</dim>
					<dim>8</dim>
					<dim>8</dim>
				</port>
			</output>
		</layer>
		<layer id="315" name="Constant_8470_compressed" type="Const" version="opset1">
			<data element_type="f16" shape="1, 672, 1, 1" offset="955184" size="1344" />
			<output>
				<port id="0" precision="FP16">
					<dim>1</dim>
					<dim>672</dim>
					<dim>1</dim>
					<dim>1</dim>
				</port>
			</output>
		</layer>
		<layer id="316" name="Constant_8470" type="Convert" version="opset1">
			<data destination_type="f32" />
			<rt_info>
				<attribute name="decompression" version="0" />
			</rt_info>
			<input>
				<port id="0" precision="FP16">
					<dim>1</dim>
					<dim>672</dim>
					<dim>1</dim>
					<dim>1</dim>
				</port>
			</input>
			<output>
				<port id="1" precision="FP32">
					<dim>1</dim>
					<dim>672</dim>
					<dim>1</dim>
					<dim>1</dim>
				</port>
			</output>
		</layer>
		<layer id="317" name="BatchNormalization_247" type="Add" version="opset1">
			<data auto_broadcast="numpy" />
			<input>
				<port id="0" precision="FP32">
					<dim>1</dim>
					<dim>672</dim>
					<dim>8</dim>
					<dim>8</dim>
				</port>
				<port id="1" precision="FP32">
					<dim>1</dim>
					<dim>672</dim>
					<dim>1</dim>
					<dim>1</dim>
				</port>
			</input>
			<output>
				<port id="2" precision="FP32" names="600">
					<dim>1</dim>
					<dim>672</dim>
					<dim>8</dim>
					<dim>8</dim>
				</port>
			</output>
		</layer>
		<layer id="318" name="Mul_253" type="HSwish" version="opset4">
			<input>
				<port id="0" precision="FP32">
					<dim>1</dim>
					<dim>672</dim>
					<dim>8</dim>
					<dim>8</dim>
				</port>
			</input>
			<output>
				<port id="1" precision="FP32" names="606">
					<dim>1</dim>
					<dim>672</dim>
					<dim>8</dim>
					<dim>8</dim>
				</port>
			</output>
		</layer>
		<layer id="319" name="Multiply_8690_compressed" type="Const" version="opset1">
			<data element_type="f16" shape="672, 1, 1, 3, 3" offset="956528" size="12096" />
			<output>
				<port id="0" precision="FP16">
					<dim>672</dim>
					<dim>1</dim>
					<dim>1</dim>
					<dim>3</dim>
					<dim>3</dim>
				</port>
			</output>
		</layer>
		<layer id="320" name="Multiply_8690" type="Convert" version="opset1">
			<data destination_type="f32" />
			<rt_info>
				<attribute name="decompression" version="0" />
			</rt_info>
			<input>
				<port id="0" precision="FP16">
					<dim>672</dim>
					<dim>1</dim>
					<dim>1</dim>
					<dim>3</dim>
					<dim>3</dim>
				</port>
			</input>
			<output>
				<port id="1" precision="FP32">
					<dim>672</dim>
					<dim>1</dim>
					<dim>1</dim>
					<dim>3</dim>
					<dim>3</dim>
				</port>
			</output>
		</layer>
		<layer id="321" name="Multiply_8472" type="GroupConvolution" version="opset1">
			<data strides="1, 1" pads_begin="1, 1" pads_end="1, 1" dilations="1, 1" auto_pad="explicit" />
			<input>
				<port id="0" precision="FP32">
					<dim>1</dim>
					<dim>672</dim>
					<dim>8</dim>
					<dim>8</dim>
				</port>
				<port id="1" precision="FP32">
					<dim>672</dim>
					<dim>1</dim>
					<dim>1</dim>
					<dim>3</dim>
					<dim>3</dim>
				</port>
			</input>
			<output>
				<port id="2" precision="FP32" names="607">
					<dim>1</dim>
					<dim>672</dim>
					<dim>8</dim>
					<dim>8</dim>
				</port>
			</output>
		</layer>
		<layer id="322" name="Constant_8477_compressed" type="Const" version="opset1">
			<data element_type="f16" shape="1, 672, 1, 1" offset="968624" size="1344" />
			<output>
				<port id="0" precision="FP16">
					<dim>1</dim>
					<dim>672</dim>
					<dim>1</dim>
					<dim>1</dim>
				</port>
			</output>
		</layer>
		<layer id="323" name="Constant_8477" type="Convert" version="opset1">
			<data destination_type="f32" />
			<rt_info>
				<attribute name="decompression" version="0" />
			</rt_info>
			<input>
				<port id="0" precision="FP16">
					<dim>1</dim>
					<dim>672</dim>
					<dim>1</dim>
					<dim>1</dim>
				</port>
			</input>
			<output>
				<port id="1" precision="FP32">
					<dim>1</dim>
					<dim>672</dim>
					<dim>1</dim>
					<dim>1</dim>
				</port>
			</output>
		</layer>
		<layer id="324" name="BatchNormalization_255" type="Add" version="opset1">
			<data auto_broadcast="numpy" />
			<input>
				<port id="0" precision="FP32">
					<dim>1</dim>
					<dim>672</dim>
					<dim>8</dim>
					<dim>8</dim>
				</port>
				<port id="1" precision="FP32">
					<dim>1</dim>
					<dim>672</dim>
					<dim>1</dim>
					<dim>1</dim>
				</port>
			</input>
			<output>
				<port id="2" precision="FP32" names="608">
					<dim>1</dim>
					<dim>672</dim>
					<dim>8</dim>
					<dim>8</dim>
				</port>
			</output>
		</layer>
		<layer id="325" name="Range_1244" type="Const" version="opset1">
			<data element_type="i64" shape="2" offset="24224" size="16" />
			<output>
				<port id="0" precision="I64">
					<dim>2</dim>
				</port>
			</output>
		</layer>
		<layer id="326" name="GlobalAveragePool_262" type="ReduceMean" version="opset1">
			<data keep_dims="true" />
			<input>
				<port id="0" precision="FP32">
					<dim>1</dim>
					<dim>672</dim>
					<dim>8</dim>
					<dim>8</dim>
				</port>
				<port id="1" precision="I64">
					<dim>2</dim>
				</port>
			</input>
			<output>
				<port id="2" precision="FP32" names="615">
					<dim>1</dim>
					<dim>672</dim>
					<dim>1</dim>
					<dim>1</dim>
				</port>
			</output>
		</layer>
		<layer id="327" name="Concat_2380" type="Const" version="opset1">
			<data element_type="i64" shape="2" offset="969968" size="16" />
			<rt_info>
				<attribute name="precise" version="0" />
			</rt_info>
			<output>
				<port id="0" precision="I64">
					<dim>2</dim>
				</port>
			</output>
		</layer>
		<layer id="328" name="Reshape_266" type="Reshape" version="opset1">
			<data special_zero="true" />
			<input>
				<port id="0" precision="FP32">
					<dim>1</dim>
					<dim>672</dim>
					<dim>1</dim>
					<dim>1</dim>
				</port>
				<port id="1" precision="I64">
					<dim>2</dim>
				</port>
			</input>
			<output>
				<port id="2" precision="FP32" names="619">
					<dim>1</dim>
					<dim>672</dim>
				</port>
			</output>
		</layer>
		<layer id="329" name="features.12.conv.5.fc.0.weight_compressed" type="Const" version="opset1">
			<data element_type="f16" shape="168, 672" offset="969984" size="225792" />
			<output>
				<port id="0" precision="FP16" names="features.12.conv.5.fc.0.weight">
					<dim>168</dim>
					<dim>672</dim>
				</port>
			</output>
		</layer>
		<layer id="330" name="features.12.conv.5.fc.0.weight" type="Convert" version="opset1">
			<data destination_type="f32" />
			<rt_info>
				<attribute name="decompression" version="0" />
			</rt_info>
			<input>
				<port id="0" precision="FP16">
					<dim>168</dim>
					<dim>672</dim>
				</port>
			</input>
			<output>
				<port id="1" precision="FP32">
					<dim>168</dim>
					<dim>672</dim>
				</port>
			</output>
		</layer>
		<layer id="331" name="Gemm_267/WithoutBiases" type="MatMul" version="opset1">
			<data transpose_a="false" transpose_b="true" />
			<input>
				<port id="0" precision="FP32">
					<dim>1</dim>
					<dim>672</dim>
				</port>
				<port id="1" precision="FP32">
					<dim>168</dim>
					<dim>672</dim>
				</port>
			</input>
			<output>
				<port id="2" precision="FP32">
					<dim>1</dim>
					<dim>168</dim>
				</port>
			</output>
		</layer>
		<layer id="332" name="Constant_8928_compressed" type="Const" version="opset1">
			<data element_type="f16" shape="1, 168" offset="1195776" size="336" />
			<output>
				<port id="0" precision="FP16">
					<dim>1</dim>
					<dim>168</dim>
				</port>
			</output>
		</layer>
		<layer id="333" name="Constant_8928" type="Convert" version="opset1">
			<data destination_type="f32" />
			<rt_info>
				<attribute name="decompression" version="0" />
			</rt_info>
			<input>
				<port id="0" precision="FP16">
					<dim>1</dim>
					<dim>168</dim>
				</port>
			</input>
			<output>
				<port id="1" precision="FP32">
					<dim>1</dim>
					<dim>168</dim>
				</port>
			</output>
		</layer>
		<layer id="334" name="Gemm_267" type="Add" version="opset1">
			<data auto_broadcast="numpy" />
			<input>
				<port id="0" precision="FP32">
					<dim>1</dim>
					<dim>168</dim>
				</port>
				<port id="1" precision="FP32">
					<dim>1</dim>
					<dim>168</dim>
				</port>
			</input>
			<output>
				<port id="2" precision="FP32" names="620">
					<dim>1</dim>
					<dim>168</dim>
				</port>
			</output>
		</layer>
		<layer id="335" name="Relu_268" type="ReLU" version="opset1">
			<input>
				<port id="0" precision="FP32">
					<dim>1</dim>
					<dim>168</dim>
				</port>
			</input>
			<output>
				<port id="1" precision="FP32" names="621">
					<dim>1</dim>
					<dim>168</dim>
				</port>
			</output>
		</layer>
		<layer id="336" name="features.12.conv.5.fc.2.weight_compressed" type="Const" version="opset1">
			<data element_type="f16" shape="672, 168" offset="1196112" size="225792" />
			<output>
				<port id="0" precision="FP16" names="features.12.conv.5.fc.2.weight">
					<dim>672</dim>
					<dim>168</dim>
				</port>
			</output>
		</layer>
		<layer id="337" name="features.12.conv.5.fc.2.weight" type="Convert" version="opset1">
			<data destination_type="f32" />
			<rt_info>
				<attribute name="decompression" version="0" />
			</rt_info>
			<input>
				<port id="0" precision="FP16">
					<dim>672</dim>
					<dim>168</dim>
				</port>
			</input>
			<output>
				<port id="1" precision="FP32">
					<dim>672</dim>
					<dim>168</dim>
				</port>
			</output>
		</layer>
		<layer id="338" name="Gemm_269/WithoutBiases" type="MatMul" version="opset1">
			<data transpose_a="false" transpose_b="true" />
			<input>
				<port id="0" precision="FP32">
					<dim>1</dim>
					<dim>168</dim>
				</port>
				<port id="1" precision="FP32">
					<dim>672</dim>
					<dim>168</dim>
				</port>
			</input>
			<output>
				<port id="2" precision="FP32">
					<dim>1</dim>
					<dim>672</dim>
				</port>
			</output>
		</layer>
		<layer id="339" name="Constant_8929_compressed" type="Const" version="opset1">
			<data element_type="f16" shape="1, 672" offset="1421904" size="1344" />
			<output>
				<port id="0" precision="FP16">
					<dim>1</dim>
					<dim>672</dim>
				</port>
			</output>
		</layer>
		<layer id="340" name="Constant_8929" type="Convert" version="opset1">
			<data destination_type="f32" />
			<rt_info>
				<attribute name="decompression" version="0" />
			</rt_info>
			<input>
				<port id="0" precision="FP16">
					<dim>1</dim>
					<dim>672</dim>
				</port>
			</input>
			<output>
				<port id="1" precision="FP32">
					<dim>1</dim>
					<dim>672</dim>
				</port>
			</output>
		</layer>
		<layer id="341" name="Gemm_269" type="Add" version="opset1">
			<data auto_broadcast="numpy" />
			<input>
				<port id="0" precision="FP32">
					<dim>1</dim>
					<dim>672</dim>
				</port>
				<port id="1" precision="FP32">
					<dim>1</dim>
					<dim>672</dim>
				</port>
			</input>
			<output>
				<port id="2" precision="FP32" names="622">
					<dim>1</dim>
					<dim>672</dim>
				</port>
			</output>
		</layer>
		<layer id="342" name="Div_274" type="HSigmoid" version="opset5">
			<input>
				<port id="0" precision="FP32">
					<dim>1</dim>
					<dim>672</dim>
				</port>
			</input>
			<output>
				<port id="1" precision="FP32" names="627">
					<dim>1</dim>
					<dim>672</dim>
				</port>
			</output>
		</layer>
		<layer id="343" name="Constant_9033" type="Const" version="opset1">
			<data element_type="i64" shape="4" offset="1423248" size="32" />
			<rt_info>
				<attribute name="precise" version="0" />
			</rt_info>
			<output>
				<port id="0" precision="I64">
					<dim>4</dim>
				</port>
			</output>
		</layer>
		<layer id="344" name="Reshape_278" type="Reshape" version="opset1">
			<data special_zero="true" />
			<input>
				<port id="0" precision="FP32">
					<dim>1</dim>
					<dim>672</dim>
				</port>
				<port id="1" precision="I64">
					<dim>4</dim>
				</port>
			</input>
			<output>
				<port id="2" precision="FP32" names="635">
					<dim>1</dim>
					<dim>672</dim>
					<dim>1</dim>
					<dim>1</dim>
				</port>
			</output>
		</layer>
		<layer id="345" name="Mul_279" type="Multiply" version="opset1">
			<data auto_broadcast="numpy" />
			<input>
				<port id="0" precision="FP32">
					<dim>1</dim>
					<dim>672</dim>
					<dim>8</dim>
					<dim>8</dim>
				</port>
				<port id="1" precision="FP32">
					<dim>1</dim>
					<dim>672</dim>
					<dim>1</dim>
					<dim>1</dim>
				</port>
			</input>
			<output>
				<port id="2" precision="FP32" names="636">
					<dim>1</dim>
					<dim>672</dim>
…
					<dim>960</dim>
					<dim>4</dim>
					<dim>4</dim>
				</port>
				<port id="1" precision="FP32">
					<dim>160</dim>
					<dim>960</dim>
					<dim>1</dim>
					<dim>1</dim>
				</port>
			</input>
			<output>
				<port id="2" precision="FP32">
					<dim>1</dim>
					<dim>160</dim>
					<dim>4</dim>
					<dim>4</dim>
				</port>
			</output>
		</layer>
		<layer id="475" name="Constant_8547_compressed" type="Const" version="opset1">
			<data element_type="f16" shape="1, 160, 1, 1" offset="5610320" size="320" />
			<output>
				<port id="0" precision="FP16">
					<dim>1</dim>
					<dim>160</dim>
					<dim>1</dim>
					<dim>1</dim>
				</port>
			</output>
		</layer>
		<layer id="476" name="Constant_8547" type="Convert" version="opset1">
			<data destination_type="f32" />
			<rt_info>
				<attribute name="decompression" version="0" />
			</rt_info>
			<input>
				<port id="0" precision="FP16">
					<dim>1</dim>
					<dim>160</dim>
					<dim>1</dim>
					<dim>1</dim>
				</port>
			</input>
			<output>
				<port id="1" precision="FP32">
					<dim>1</dim>
					<dim>160</dim>
					<dim>1</dim>
					<dim>1</dim>
				</port>
			</output>
		</layer>
		<layer id="477" name="BatchNormalization_415" type="Add" version="opset1">
			<data auto_broadcast="numpy" />
			<input>
				<port id="0" precision="FP32">
					<dim>1</dim>
					<dim>160</dim>
					<dim>4</dim>
					<dim>4</dim>
				</port>
				<port id="1" precision="FP32">
					<dim>1</dim>
					<dim>160</dim>
					<dim>1</dim>
					<dim>1</dim>
				</port>
			</input>
			<output>
				<port id="2" precision="FP32" names="784">
					<dim>1</dim>
					<dim>160</dim>
					<dim>4</dim>
					<dim>4</dim>
				</port>
			</output>
		</layer>
		<layer id="478" name="Add_416" type="Add" version="opset1">
			<data auto_broadcast="numpy" />
			<input>
				<port id="0" precision="FP32">
					<dim>1</dim>
					<dim>160</dim>
					<dim>4</dim>
					<dim>4</dim>
				</port>
				<port id="1" precision="FP32">
					<dim>1</dim>
					<dim>160</dim>
					<dim>4</dim>
					<dim>4</dim>
				</port>
			</input>
			<output>
				<port id="2" precision="FP32" names="785">
					<dim>1</dim>
					<dim>160</dim>
					<dim>4</dim>
					<dim>4</dim>
				</port>
			</output>
		</layer>
		<layer id="479" name="Multiply_8730_compressed" type="Const" version="opset1">
			<data element_type="f16" shape="1280, 160, 1, 1" offset="5610640" size="409600" />
			<output>
				<port id="0" precision="FP16">
					<dim>1280</dim>
					<dim>160</dim>
					<dim>1</dim>
					<dim>1</dim>
				</port>
			</output>
		</layer>
		<layer id="480" name="Multiply_8730" type="Convert" version="opset1">
			<data destination_type="f32" />
			<rt_info>
				<attribute name="decompression" version="0" />
			</rt_info>
			<input>
				<port id="0" precision="FP16">
					<dim>1280</dim>
					<dim>160</dim>
					<dim>1</dim>
					<dim>1</dim>
				</port>
			</input>
			<output>
				<port id="1" precision="FP32">
					<dim>1280</dim>
					<dim>160</dim>
					<dim>1</dim>
					<dim>1</dim>
				</port>
			</output>
		</layer>
		<layer id="481" name="Multiply_8549" type="Convolution" version="opset1">
			<data strides="1, 1" dilations="1, 1" pads_begin="0, 0" pads_end="0, 0" auto_pad="explicit" />
			<input>
				<port id="0" precision="FP32">
					<dim>1</dim>
					<dim>160</dim>
					<dim>4</dim>
					<dim>4</dim>
				</port>
				<port id="1" precision="FP32">
					<dim>1280</dim>
					<dim>160</dim>
					<dim>1</dim>
					<dim>1</dim>
				</port>
			</input>
			<output>
				<port id="2" precision="FP32">
					<dim>1</dim>
					<dim>1280</dim>
					<dim>4</dim>
					<dim>4</dim>
				</port>
			</output>
		</layer>
		<layer id="482" name="Constant_8554_compressed" type="Const" version="opset1">
			<data element_type="f16" shape="1, 1280, 1, 1" offset="6020240" size="2560" />
			<output>
				<port id="0" precision="FP16">
					<dim>1</dim>
					<dim>1280</dim>
					<dim>1</dim>
					<dim>1</dim>
				</port>
			</output>
		</layer>
		<layer id="483" name="Constant_8554" type="Convert" version="opset1">
			<data destination_type="f32" />
			<rt_info>
				<attribute name="decompression" version="0" />
			</rt_info>
			<input>
				<port id="0" precision="FP16">
					<dim>1</dim>
					<dim>1280</dim>
					<dim>1</dim>
					<dim>1</dim>
				</port>
			</input>
			<output>
				<port id="1" precision="FP32">
					<dim>1</dim>
					<dim>1280</dim>
					<dim>1</dim>
					<dim>1</dim>
				</port>
			</output>
		</layer>
		<layer id="484" name="BatchNormalization_418" type="Add" version="opset1">
			<data auto_broadcast="numpy" />
			<input>
				<port id="0" precision="FP32">
					<dim>1</dim>
					<dim>1280</dim>
					<dim>4</dim>
					<dim>4</dim>
				</port>
				<port id="1" precision="FP32">
					<dim>1</dim>
					<dim>1280</dim>
					<dim>1</dim>
					<dim>1</dim>
				</port>
			</input>
			<output>
				<port id="2" precision="FP32" names="787">
					<dim>1</dim>
					<dim>1280</dim>
					<dim>4</dim>
					<dim>4</dim>
				</port>
			</output>
		</layer>
		<layer id="485" name="Mul_424" type="HSwish" version="opset4">
			<input>
				<port id="0" precision="FP32">
					<dim>1</dim>
					<dim>1280</dim>
					<dim>4</dim>
					<dim>4</dim>
				</port>
			</input>
			<output>
				<port id="1" precision="FP32" names="793">
					<dim>1</dim>
					<dim>1280</dim>
					<dim>4</dim>
					<dim>4</dim>
				</port>
			</output>
		</layer>
		<layer id="486" name="Range_1654" type="Const" version="opset1">
			<data element_type="i64" shape="2" offset="24224" size="16" />
			<output>
				<port id="0" precision="I64">
					<dim>2</dim>
				</port>
			</output>
		</layer>
		<layer id="487" name="GlobalAveragePool_425" type="ReduceMean" version="opset1">
			<data keep_dims="true" />
			<input>
				<port id="0" precision="FP32">
					<dim>1</dim>
					<dim>1280</dim>
					<dim>4</dim>
					<dim>4</dim>
				</port>
				<port id="1" precision="I64">
					<dim>2</dim>
				</port>
			</input>
			<output>
				<port id="2" precision="FP32" names="794">
					<dim>1</dim>
					<dim>1280</dim>
					<dim>1</dim>
					<dim>1</dim>
				</port>
			</output>
		</layer>
		<layer id="488" name="Concat_430" type="Const" version="opset1">
			<data element_type="i64" shape="2" offset="6022800" size="16" />
			<rt_info>
				<attribute name="precise" version="0" />
			</rt_info>
			<output>
				<port id="0" precision="I64">
					<dim>2</dim>
				</port>
			</output>
		</layer>
		<layer id="489" name="Reshape_431" type="Reshape" version="opset1">
			<data special_zero="true" />
			<input>
				<port id="0" precision="FP32">
					<dim>1</dim>
					<dim>1280</dim>
					<dim>1</dim>
					<dim>1</dim>
				</port>
				<port id="1" precision="I64">
					<dim>2</dim>
				</port>
			</input>
			<output>
				<port id="2" precision="FP32" names="802">
					<dim>1</dim>
					<dim>1280</dim>
				</port>
			</output>
		</layer>
		<layer id="490" name="Constant_8230_compressed" type="Const" version="opset1">
			<data element_type="f16" shape="1, 1280" offset="6022816" size="2560" />
			<output>
				<port id="0" precision="FP16">
					<dim>1</dim>
					<dim>1280</dim>
				</port>
			</output>
		</layer>
		<layer id="491" name="Constant_8230" type="Convert" version="opset1">
			<data destination_type="f32" />
			<rt_info>
				<attribute name="decompression" version="0" />
			</rt_info>
			<input>
				<port id="0" precision="FP16">
					<dim>1</dim>
					<dim>1280</dim>
				</port>
			</input>
			<output>
				<port id="1" precision="FP32">
					<dim>1</dim>
					<dim>1280</dim>
				</port>
			</output>
		</layer>
		<layer id="492" name="Multiply_8556" type="Multiply" version="opset1">
			<data auto_broadcast="numpy" />
			<input>
				<port id="0" precision="FP32">
					<dim>1</dim>
					<dim>1280</dim>
				</port>
				<port id="1" precision="FP32">
					<dim>1</dim>
					<dim>1280</dim>
				</port>
			</input>
			<output>
				<port id="2" precision="FP32">
					<dim>1</dim>
					<dim>1280</dim>
				</port>
			</output>
		</layer>
		<layer id="493" name="Constant_8561_compressed" type="Const" version="opset1">
			<data element_type="f16" shape="1, 1280" offset="6025376" size="2560" />
			<output>
				<port id="0" precision="FP16">
					<dim>1</dim>
					<dim>1280</dim>
				</port>
			</output>
		</layer>
		<layer id="494" name="Constant_8561" type="Convert" version="opset1">
			<data destination_type="f32" />
			<rt_info>
				<attribute name="decompression" version="0" />
			</rt_info>
			<input>
				<port id="0" precision="FP16">
					<dim>1</dim>
					<dim>1280</dim>
				</port>
			</input>
			<output>
				<port id="1" precision="FP32">
					<dim>1</dim>
					<dim>1280</dim>
				</port>
			</output>
		</layer>
		<layer id="495" name="BatchNormalization_432" type="Add" version="opset1">
			<data auto_broadcast="numpy" />
			<input>
				<port id="0" precision="FP32">
					<dim>1</dim>
					<dim>1280</dim>
				</port>
				<port id="1" precision="FP32">
					<dim>1</dim>
					<dim>1280</dim>
				</port>
			</input>
			<output>
				<port id="2" precision="FP32" names="803">
					<dim>1</dim>
					<dim>1280</dim>
				</port>
			</output>
		</layer>
		<layer id="496" name="Mul_438" type="HSwish" version="opset4">
			<input>
				<port id="0" precision="FP32">
					<dim>1</dim>
					<dim>1280</dim>
				</port>
			</input>
			<output>
				<port id="1" precision="FP32" names="809">
					<dim>1</dim>
					<dim>1280</dim>
				</port>
			</output>
		</layer>
		<layer id="497" name="spoofer.3.weight_compressed" type="Const" version="opset1">
			<data element_type="f16" shape="2, 1280" offset="6027936" size="5120" />
			<output>
				<port id="0" precision="FP16" names="spoofer.3.weight">
					<dim>2</dim>
					<dim>1280</dim>
				</port>
			</output>
		</layer>
		<layer id="498" name="spoofer.3.weight" type="Convert" version="opset1">
			<data destination_type="f32" />
			<rt_info>
				<attribute name="decompression" version="0" />
			</rt_info>
			<input>
				<port id="0" precision="FP16">
					<dim>2</dim>
					<dim>1280</dim>
				</port>
			</input>
			<output>
				<port id="1" precision="FP32">
					<dim>2</dim>
					<dim>1280</dim>
				</port>
			</output>
		</layer>
		<layer id="499" name="Gemm_439/WithoutBiases" type="MatMul" version="opset1">
			<data transpose_a="false" transpose_b="true" />
			<input>
				<port id="0" precision="FP32">
					<dim>1</dim>
					<dim>1280</dim>
				</port>
				<port id="1" precision="FP32">
					<dim>2</dim>
					<dim>1280</dim>
				</port>
			</input>
			<output>
				<port id="2" precision="FP32">
					<dim>1</dim>
					<dim>2</dim>
				</port>
			</output>
		</layer>
		<layer id="500" name="Constant_8936_compressed" type="Const" version="opset1">
			<data element_type="f16" shape="1, 2" offset="6033056" size="4" />
			<output>
				<port id="0" precision="FP16">
					<dim>1</dim>
					<dim>2</dim>
				</port>
			</output>
		</layer>
		<layer id="501" name="Constant_8936" type="Convert" version="opset1">
			<data destination_type="f32" />
			<rt_info>
				<attribute name="decompression" version="0" />
			</rt_info>
			<input>
				<port id="0" precision="FP16">
					<dim>1</dim>
					<dim>2</dim>
				</port>
			</input>
			<output>
				<port id="1" precision="FP32">
					<dim>1</dim>
					<dim>2</dim>
				</port>
			</output>
		</layer>
		<layer id="502" name="Gemm_439" type="Add" version="opset1">
			<data auto_broadcast="numpy" />
			<input>
				<port id="0" precision="FP32">
					<dim>1</dim>
					<dim>2</dim>
				</port>
				<port id="1" precision="FP32">
					<dim>1</dim>
					<dim>2</dim>
				</port>
			</input>
			<output>
				<port id="2" precision="FP32" names="810">
					<dim>1</dim>
					<dim>2</dim>
				</port>
			</output>
		</layer>
		<layer id="503" name="Constant_1679" type="Const" version="opset1">
			<data element_type="i64" shape="2" offset="6022800" size="16" />
			<rt_info>
				<attribute name="precise" version="0" />
			</rt_info>
			<output>
				<port id="0" precision="I64">
					<dim>2</dim>
				</port>
			</output>
		</layer>
		<layer id="504" name="Reshape_1680" type="Reshape" version="opset1">
			<data special_zero="true" />
			<input>
				<port id="0" precision="FP32">
					<dim>1</dim>
					<dim>2</dim>
				</port>
				<port id="1" precision="I64">
					<dim>2</dim>
				</port>
			</input>
			<output>
				<port id="2" precision="FP32">
					<dim>1</dim>
					<dim>2</dim>
				</port>
			</output>
		</layer>
		<layer id="505" name="Softmax_1681" type="SoftMax" version="opset8">
			<data axis="1" />
			<input>
				<port id="0" precision="FP32">
					<dim>1</dim>
					<dim>2</dim>
				</port>
			</input>
			<output>
				<port id="1" precision="FP32">
					<dim>1</dim>
					<dim>2</dim>
				</port>
			</output>
		</layer>
		<layer id="506" name="Constant_9037" type="Const" version="opset1">
			<data element_type="i64" shape="2" offset="6033060" size="16" />
			<rt_info>
				<attribute name="precise" version="0" />
			</rt_info>
			<output>
				<port id="0" precision="I64">
					<dim>2</dim>
				</port>
			</output>
		</layer>
		<layer id="507" name="output1" type="Reshape" version="opset1">
			<data special_zero="true" />
			<input>
				<port id="0" precision="FP32">
					<dim>1</dim>
					<dim>2</dim>
				</port>
				<port id="1" precision="I64">
					<dim>2</dim>
				</port>
			</input>
			<output>
				<port id="2" precision="FP32" names="output1">
					<dim>1</dim>
					<dim>2</dim>
				</port>
			</output>
		</layer>
		<layer id="508" name="output1/sink_port_0" type="Result" version="opset1">
			<input>
				<port id="0" precision="FP32">
					<dim>1</dim>
					<dim>2</dim>
				</port>
			</input>
		</layer>
	</layers>
	<edges>
		<edge from-layer="0" from-port="0" to-layer="3" to-port="0" />
		<edge from-layer="1" from-port="0" to-layer="2" to-port="0" />
		<edge from-layer="2" from-port="1" to-layer="3" to-port="1" />
		<edge from-layer="3" from-port="2" to-layer="6" to-port="0" />
		<edge from-layer="4" from-port="0" to-layer="5" to-port="0" />
		<edge from-layer="5" from-port="1" to-layer="6" to-port="1" />
		<edge from-layer="6" from-port="2" to-layer="7" to-port="0" />
		<edge from-layer="7" from-port="1" to-layer="10" to-port="0" />
		<edge from-layer="7" from-port="1" to-layer="21" to-port="0" />
		<edge from-layer="8" from-port="0" to-layer="9" to-port="0" />
		<edge from-layer="9" from-port="1" to-layer="10" to-port="1" />
		<edge from-layer="10" from-port="2" to-layer="13" to-port="0" />
		<edge from-layer="11" from-port="0" to-layer="12" to-port="0" />
		<edge from-layer="12" from-port="1" to-layer="13" to-port="1" />
		<edge from-layer="13" from-port="2" to-layer="14" to-port="0" />
		<edge from-layer="14" from-port="1" to-layer="17" to-port="0" />
		<edge from-layer="15" from-port="0" to-layer="16" to-port="0" />
		<edge from-layer="16" from-port="1" to-layer="17" to-port="1" />
		<edge from-layer="17" from-port="2" to-layer="20" to-port="0" />
		<edge from-layer="18" from-port="0" to-layer="19" to-port="0" />
		<edge from-layer="19" from-port="1" to-layer="20" to-port="1" />
		<edge from-layer="20" from-port="2" to-layer="21" to-port="1" />
		<edge from-layer="21" from-port="2" to-layer="24" to-port="0" />
		<edge from-layer="22" from-port="0" to-layer="23" to-port="0" />
		<edge from-layer="23" from-port="1" to-layer="24" to-port="1" />
		<edge from-layer="24" from-port="2" to-layer="27" to-port="0" />
		<edge from-layer="25" from-port="0" to-layer="26" to-port="0" />
		<edge from-layer="26" from-port="1" to-layer="27" to-port="1" />
		<edge from-layer="27" from-port="2" to-layer="28" to-port="0" />
		<edge from-layer="28" from-port="1" to-layer="31" to-port="0" />
		<edge from-layer="29" from-port="0" to-layer="30" to-port="0" />
		<edge from-layer="30" from-port="1" to-layer="31" to-port="1" />
		<edge from-layer="31" from-port="2" to-layer="34" to-port="0" />
		<edge from-layer="32" from-port="0" to-layer="33" to-port="0" />
		<edge from-layer="33" from-port="1" to-layer="34" to-port="1" />
		<edge from-layer="34" from-port="2" to-layer="35" to-port="0" />
		<edge from-layer="35" from-port="1" to-layer="38" to-port="0" />
		<edge from-layer="36" from-port="0" to-layer="37" to-port="0" />
		<edge from-layer="37" from-port="1" to-layer="38" to-port="1" />
		<edge from-layer="38" from-port="2" to-layer="41" to-port="0" />
		<edge from-layer="39" from-port="0" to-layer="40" to-port="0" />
		<edge from-layer="40" from-port="1" to-layer="41" to-port="1" />
		<edge from-layer="41" from-port="2" to-layer="44" to-port="0" />
		<edge from-layer="41" from-port="2" to-layer="62" to-port="0" />
		<edge from-layer="42" from-port="0" to-layer="43" to-port="0" />
		<edge from-layer="43" from-port="1" to-layer="44" to-port="1" />
		<edge from-layer="44" from-port="2" to-layer="47" to-port="0" />
		<edge from-layer="45" from-port="0" to-layer="46" to-port="0" />
		<edge from-layer="46" from-port="1" to-layer="47" to-port="1" />
		<edge from-layer="47" from-port="2" to-layer="48" to-port="0" />
		<edge from-layer="48" from-port="1" to-layer="51" to-port="0" />
		<edge from-layer="49" from-port="0" to-layer="50" to-port="0" />
		<edge from-layer="50" from-port="1" to-layer="51" to-port="1" />
		<edge from-layer="51" from-port="2" to-layer="54" to-port="0" />
		<edge from-layer="52" from-port="0" to-layer="53" to-port="0" />
		<edge from-layer="53" from-port="1" to-layer="54" to-port="1" />
		<edge from-layer="54" from-port="2" to-layer="55" to-port="0" />
		<edge from-layer="55" from-port="1" to-layer="58" to-port="0" />
		<edge from-layer="56" from-port="0" to-layer="57" to-port="0" />
		<edge from-layer="57" from-port="1" to-layer="58" to-port="1" />
		<edge from-layer="58" from-port="2" to-layer="61" to-port="0" />
		<edge from-layer="59" from-port="0" to-layer="60" to-port="0" />
		<edge from-layer="60" from-port="1" to-layer="61" to-port="1" />
		<edge from-layer="61" from-port="2" to-layer="62" to-port="1" />
		<edge from-layer="62" from-port="2" to-layer="65" to-port="0" />
		<edge from-layer="63" from-port="0" to-layer="64" to-port="0" />
		<edge from-layer="64" from-port="1" to-layer="65" to-port="1" />
		<edge from-layer="65" from-port="2" to-layer="68" to-port="0" />
		<edge from-layer="66" from-port="0" to-layer="67" to-port="0" />
		<edge from-layer="67" from-port="1" to-layer="68" to-port="1" />
		<edge from-layer="68" from-port="2" to-layer="69" to-port="0" />
		<edge from-layer="69" from-port="1" to-layer="72" to-port="0" />
		<edge from-layer="70" from-port="0" to-layer="71" to-port="0" />
		<edge from-layer="71" from-port="1" to-layer="72" to-port="1" />
		<edge from-layer="72" from-port="2" to-layer="75" to-port="0" />
		<edge from-layer="73" from-port="0" to-layer="74" to-port="0" />
		<edge from-layer="74" from-port="1" to-layer="75" to-port="1" />
		<edge from-layer="75" from-port="2" to-layer="77" to-port="0" />
		<edge from-layer="75" from-port="2" to-layer="96" to-port="0" />
		<edge from-layer="76" from-port="0" to-layer="77" to-port="1" />
		<edge from-layer="77" from-port="2" to-layer="79" to-port="0" />
		<edge from-layer="78" from-port="0" to-layer="79" to-port="1" />
		<edge from-layer="79" from-port="2" to-layer="82" to-port="0" />
		<edge from-layer="80" from-port="0" to-layer="81" to-port="0" />
		<edge from-layer="81" from-port="1" to-layer="82" to-port="1" />
		<edge from-layer="82" from-port="2" to-layer="85" to-port="0" />
		<edge from-layer="83" from-port="0" to-layer="84" to-port="0" />
		<edge from-layer="84" from-port="1" to-layer="85" to-port="1" />
		<edge from-layer="85" from-port="2" to-layer="86" to-port="0" />
		<edge from-layer="86" from-port="1" to-layer="89" to-port="0" />
		<edge from-layer="87" from-port="0" to-layer="88" to-port="0" />
		<edge from-layer="88" from-port="1" to-layer="89" to-port="1" />
		<edge from-layer="89" from-port="2" to-layer="92" to-port="0" />
		<edge from-layer="90" from-port="0" to-layer="91" to-port="0" />
		<edge from-layer="91" from-port="1" to-layer="92" to-port="1" />
		<edge from-layer="92" from-port="2" to-layer="93" to-port="0" />
		<edge from-layer="93" from-port="1" to-layer="95" to-port="0" />
		<edge from-layer="94" from-port="0" to-layer="95" to-port="1" />
		<edge from-layer="95" from-port="2" to-layer="96" to-port="1" />
		<edge from-layer="96" from-port="2" to-layer="97" to-port="0" />
		<edge from-layer="97" from-port="1" to-layer="100" to-port="0" />
		<edge from-layer="98" from-port="0" to-layer="99" to-port="0" />
		<edge from-layer="99" from-port="1" to-layer="100" to-port="1" />
		<edge from-layer="100" from-port="2" to-layer="103" to-port="0" />
		<edge from-layer="101" from-port="0" to-layer="102" to-port="0" />
		<edge from-layer="102" from-port="1" to-layer="103" to-port="1" />
		<edge from-layer="103" from-port="2" to-layer="145" to-port="0" />
		<edge from-layer="103" from-port="2" to-layer="106" to-port="0" />
		<edge from-layer="104" from-port="0" to-layer="105" to-port="0" />
		<edge from-layer="105" from-port="1" to-layer="106" to-port="1" />
		<edge from-layer="106" from-port="2" to-layer="109" to-port="0" />
		<edge from-layer="107" from-port="0" to-layer="108" to-port="0" />
		<edge from-layer="108" from-port="1" to-layer="109" to-port="1" />
		<edge from-layer="109" from-port="2" to-layer="110" to-port="0" />
		<edge from-layer="110" from-port="1" to-layer="113" to-port="0" />
		<edge from-layer="111" from-port="0" to-layer="112" to-port="0" />
		<edge from-layer="112" from-port="1" to-layer="113" to-port="1" />
		<edge from-layer="113" from-port="2" to-layer="116" to-port="0" />
		<edge from-layer="114" from-port="0" to-layer="115" to-port="0" />
		<edge from-layer="115" from-port="1" to-layer="116" to-port="1" />
		<edge from-layer="116" from-port="2" to-layer="118" to-port="0" />
		<edge from-layer="116" from-port="2" to-layer="137" to-port="0" />
		<edge from-layer="117" from-port="0" to-layer="118" to-port="1" />
		<edge from-layer="118" from-port="2" to-layer="120" to-port="0" />
		<edge from-layer="119" from-port="0" to-layer="120" to-port="1" />
		<edge from-layer="120" from-port="2" to-layer="123" to-port="0" />
		<edge from-layer="121" from-port="0" to-layer="122" to-port="0" />
		<edge from-layer="122" from-port="1" to-layer="123" to-port="1" />
		<edge from-layer="123" from-port="2" to-layer="126" to-port="0" />
		<edge from-layer="124" from-port="0" to-layer="125" to-port="0" />
		<edge from-layer="125" from-port="1" to-layer="126" to-port="1" />
		<edge from-layer="126" from-port="2" to-layer="127" to-port="0" />
		<edge from-layer="127" from-port="1" to-layer="130" to-port="0" />
		<edge from-layer="128" from-port="0" to-layer="129" to-port="0" />
		<edge from-layer="129" from-port="1" to-layer="130" to-port="1" />
		<edge from-layer="130" from-port="2" to-layer="133" to-port="0" />
		<edge from-layer="131" from-port="0" to-layer="132" to-port="0" />
		<edge from-layer="132" from-port="1" to-layer="133" to-port="1" />
		<edge from-layer="133" from-port="2" to-layer="134" to-port="0" />
		<edge from-layer="134" from-port="1" to-layer="136" to-port="0" />
		<edge from-layer="135" from-port="0" to-layer="136" to-port="1" />
		<edge from-layer="136" from-port="2" to-layer="137" to-port="1" />
		<edge from-layer="137" from-port="2" to-layer="138" to-port="0" />
		<edge from-layer="138" from-port="1" to-layer="141" to-port="0" />
		<edge from-layer="139" from-port="0" to-layer="140" to-port="0" />
		<edge from-layer="140" from-port="1" to-layer="141" to-port="1" />
		<edge from-layer="141" from-port="2" to-layer="144" to-port="0" />
		<edge from-layer="142" from-port="0" to-layer="143" to-port="0" />
		<edge from-layer="143" from-port="1" to-layer="144" to-port="1" />
		<edge from-layer="144" from-port="2" to-layer="145" to-port="1" />
		<edge from-layer="145" from-port="2" to-layer="187" to-port="0" />
		<edge from-layer="145" from-port="2" to-layer="148" to-port="0" />
		<edge from-layer="146" from-port="0" to-layer="147" to-port="0" />
		<edge from-layer="147" from-port="1" to-layer="148" to-port="1" />
		<edge from-layer="148" from-port="2" to-layer="151" to-port="0" />
		<edge from-layer="149" from-port="0" to-layer="150" to-port="0" />
		<edge from-layer="150" from-port="1" to-layer="151" to-port="1" />
		<edge from-layer="151" from-port="2" to-layer="152" to-port="0" />
		<edge from-layer="152" from-port="1" to-layer="155" to-port="0" />
		<edge from-layer="153" from-port="0" to-layer="154" to-port="0" />
		<edge from-layer="154" from-port="1" to-layer="155" to-port="1" />
		<edge from-layer="155" from-port="2" to-layer="158" to-port="0" />
		<edge from-layer="156" from-port="0" to-layer="157" to-port="0" />
		<edge from-layer="157" from-port="1" to-layer="158" to-port="1" />
		<edge from-layer="158" from-port="2" to-layer="160" to-port="0" />
		<edge from-layer="158" from-port="2" to-layer="179" to-port="0" />
		<edge from-layer="159" from-port="0" to-layer="160" to-port="1" />
		<edge from-layer="160" from-port="2" to-layer="162" to-port="0" />
		<edge from-layer="161" from-port="0" to-layer="162" to-port="1" />
		<edge from-layer="162" from-port="2" to-layer="165" to-port="0" />
		<edge from-layer="163" from-port="0" to-layer="164" to-port="0" />
		<edge from-layer="164" from-port="1" to-layer="165" to-port="1" />
		<edge from-layer="165" from-port="2" to-layer="168" to-port="0" />
		<edge from-layer="166" from-port="0" to-layer="167" to-port="0" />
		<edge from-layer="167" from-port="1" to-layer="168" to-port="1" />
		<edge from-layer="168" from-port="2" to-layer="169" to-port="0" />
		<edge from-layer="169" from-port="1" to-layer="172" to-port="0" />
		<edge from-layer="170" from-port="0" to-layer="171" to-port="0" />
		<edge from-layer="171" from-port="1" to-layer="172" to-port="1" />
		<edge from-layer="172" from-port="2" to-layer="175" to-port="0" />
		<edge from-layer="173" from-port="0" to-layer="174" to-port="0" />
		<edge from-layer="174" from-port="1" to-layer="175" to-port="1" />
		<edge from-layer="175" from-port="2" to-layer="176" to-port="0" />
		<edge from-layer="176" from-port="1" to-layer="178" to-port="0" />
		<edge from-layer="177" from-port="0" to-layer="178" to-port="1" />
		<edge from-layer="178" from-port="2" to-layer="179" to-port="1" />
		<edge from-layer="179" from-port="2" to-layer="180" to-port="0" />
		<edge from-layer="180" from-port="1" to-layer="183" to-port="0" />
		<edge from-layer="181" from-port="0" to-layer="182" to-port="0" />
		<edge from-layer="182" from-port="1" to-layer="183" to-port="1" />
		<edge from-layer="183" from-port="2" to-layer="186" to-port="0" />
		<edge from-layer="184" from-port="0" to-layer="185" to-port="0" />
		<edge from-layer="185" from-port="1" to-layer="186" to-port="1" />
		<edge from-layer="186" from-port="2" to-layer="187" to-port="1" />
		<edge from-layer="187" from-port="2" to-layer="190" to-port="0" />
		<edge from-layer="188" from-port="0" to-layer="189" to-port="0" />
		<edge from-layer="189" from-port="1" to-layer="190" to-port="1" />
		<edge from-layer="190" from-port="2" to-layer="193" to-port="0" />
		<edge from-layer="191" from-port="0" to-layer="192" to-port="0" />
		<edge from-layer="192" from-port="1" to-layer="193" to-port="1" />
		<edge from-layer="193" from-port="2" to-layer="194" to-port="0" />
		<edge from-layer="194" from-port="1" to-layer="197" to-port="0" />
		<edge from-layer="195" from-port="0" to-layer="196" to-port="0" />
		<edge from-layer="196" from-port="1" to-layer="197" to-port="1" />
		<edge from-layer="197" from-port="2" to-layer="200" to-port="0" />
		<edge from-layer="198" from-port="0" to-layer="199" to-port="0" />
		<edge from-layer="199" from-port="1" to-layer="200" to-port="1" />
		<edge from-layer="200" from-port="2" to-layer="201" to-port="0" />
		<edge from-layer="201" from-port="1" to-layer="204" to-port="0" />
		<edge from-layer="202" from-port="0" to-layer="203" to-port="0" />
		<edge from-layer="203" from-port="1" to-layer="204" to-port="1" />
		<edge from-layer="204" from-port="2" to-layer="207" to-port="0" />
		<edge from-layer="205" from-port="0" to-layer="206" to-port="0" />
		<edge from-layer="206" from-port="1" to-layer="207" to-port="1" />
		<edge from-layer="207" from-port="2" to-layer="210" to-port="0" />
		<edge from-layer="207" from-port="2" to-layer="228" to-port="0" />
		<edge from-layer="208" from-port="0" to-layer="209" to-port="0" />
		<edge from-layer="209" from-port="1" to-layer="210" to-port="1" />
		<edge from-layer="210" from-port="2" to-layer="213" to-port="0" />
		<edge from-layer="211" from-port="0" to-layer="212" to-port="0" />
		<edge from-layer="212" from-port="1" to-layer="213" to-port="1" />
		<edge from-layer="213" from-port="2" to-layer="214" to-port="0" />
		<edge from-layer="214" from-port="1" to-layer="217" to-port="0" />
		<edge from-layer="215" from-port="0" to-layer="216" to-port="0" />
		<edge from-layer="216" from-port="1" to-layer="217" to-port="1" />
		<edge from-layer="217" from-port="2" to-layer="220" to-port="0" />
		<edge from-layer="218" from-port="0" to-layer="219" to-port="0" />
		<edge from-layer="219" from-port="1" to-layer="220" to-port="1" />
		<edge from-layer="220" from-port="2" to-layer="221" to-port="0" />
		<edge from-layer="221" from-port="1" to-layer="224" to-port="0" />
		<edge from-layer="222" from-port="0" to-layer="223" to-port="0" />
		<edge from-layer="223" from-port="1" to-layer="224" to-port="1" />
		<edge from-layer="224" from-port="2" to-layer="227" to-port="0" />
		<edge from-layer="225" from-port="0" to-layer="226" to-port="0" />
		<edge from-layer="226" from-port="1" to-layer="227" to-port="1" />
		<edge from-layer="227" from-port="2" to-layer="228" to-port="1" />
		<edge from-layer="228" from-port="2" to-layer="231" to-port="0" />
		<edge from-layer="228" from-port="2" to-layer="249" to-port="0" />
		<edge from-layer="229" from-port="0" to-layer="230" to-port="0" />
		<edge from-layer="230" from-port="1" to-layer="231" to-port="1" />
		<edge from-layer="231" from-port="2" to-layer="234" to-port="0" />
		<edge from-layer="232" from-port="0" to-layer="233" to-port="0" />
		<edge from-layer="233" from-port="1" to-layer="234" to-port="1" />
		<edge from-layer="234" from-port="2" to-layer="235" to-port="0" />
		<edge from-layer="235" from-port="1" to-layer="238" to-port="0" />
		<edge from-layer="236" from-port="0" to-layer="237" to-port="0" />
		<edge from-layer="237" from-port="1" to-layer="238" to-port="1" />
		<edge from-layer="238" from-port="2" to-layer="241" to-port="0" />
		<edge from-layer="239" from-port="0" to-layer="240" to-port="0" />
		<edge from-layer="240" from-port="1" to-layer="241" to-port="1" />
		<edge from-layer="241" from-port="2" to-layer="242" to-port="0" />
		<edge from-layer="242" from-port="1" to-layer="245" to-port="0" />
		<edge from-layer="243" from-port="0" to-layer="244" to-port="0" />
		<edge from-layer="244" from-port="1" to-layer="245" to-port="1" />
		<edge from-layer="245" from-port="2" to-layer="248" to-port="0" />
		<edge from-layer="246" from-port="0" to-layer="247" to-port="0" />
		<edge from-layer="247" from-port="1" to-layer="248" to-port="1" />
		<edge from-layer="248" from-port="2" to-layer="249" to-port="1" />
		<edge from-layer="249" from-port="2" to-layer="252" to-port="0" />
		<edge from-layer="249" from-port="2" to-layer="270" to-port="0" />
		<edge from-layer="250" from-port="0" to-layer="251" to-port="0" />
		<edge from-layer="251" from-port="1" to-layer="252" to-port="1" />
		<edge from-layer="252" from-port="2" to-layer="255" to-port="0" />
		<edge from-layer="253" from-port="0" to-layer="254" to-port="0" />
		<edge from-layer="254" from-port="1" to-layer="255" to-port="1" />
		<edge from-layer="255" from-port="2" to-layer="256" to-port="0" />
		<edge from-layer="256" from-port="1" to-layer="259" to-port="0" />
		<edge from-layer="257" from-port="0" to-layer="258" to-port="0" />
		<edge from-layer="258" from-port="1" to-layer="259" to-port="1" />
		<edge from-layer="259" from-port="2" to-layer="262" to-port="0" />
		<edge from-layer="260" from-port="0" to-layer="261" to-port="0" />
		<edge from-layer="261" from-port="1" to-layer="262" to-port="1" />
		<edge from-layer="262" from-port="2" to-layer="263" to-port="0" />
		<edge from-layer="263" from-port="1" to-layer="266" to-port="0" />
		<edge from-layer="264" from-port="0" to-layer="265" to-port="0" />
		<edge from-layer="265" from-port="1" to-layer="266" to-port="1" />
		<edge from-layer="266" from-port="2" to-layer="269" to-port="0" />
		<edge from-layer="267" from-port="0" to-layer="268" to-port="0" />
		<edge from-layer="268" from-port="1" to-layer="269" to-port="1" />
		<edge from-layer="269" from-port="2" to-layer="270" to-port="1" />
		<edge from-layer="270" from-port="2" to-layer="273" to-port="0" />
		<edge from-layer="271" from-port="0" to-layer="272" to-port="0" />
		<edge from-layer="272" from-port="1" to-layer="273" to-port="1" />
		<edge from-layer="273" from-port="2" to-layer="276" to-port="0" />
		<edge from-layer="274" from-port="0" to-layer="275" to-port="0" />
		<edge from-layer="275" from-port="1" to-layer="276" to-port="1" />
		<edge from-layer="276" from-port="2" to-layer="277" to-port="0" />
		<edge from-layer="277" from-port="1" to-layer="280" to-port="0" />
		<edge from-layer="278" from-port="0" to-layer="279" to-port="0" />
		<edge from-layer="279" from-port="1" to-layer="280" to-port="1" />
		<edge from-layer="280" from-port="2" to-layer="283" to-port="0" />
		<edge from-layer="281" from-port="0" to-layer="282" to-port="0" />
		<edge from-layer="282" from-port="1" to-layer="283" to-port="1" />
		<edge from-layer="283" from-port="2" to-layer="285" to-port="0" />
		<edge from-layer="283" from-port="2" to-layer="304" to-port="0" />
		<edge from-layer="284" from-port="0" to-layer="285" to-port="1" />
		<edge from-layer="285" from-port="2" to-layer="287" to-port="0" />
		<edge from-layer="286" from-port="0" to-layer="287" to-port="1" />
		<edge from-layer="287" from-port="2" to-layer="290" to-port="0" />
		<edge from-layer="288" from-port="0" to-layer="289" to-port="0" />
		<edge from-layer="289" from-port="1" to-layer="290" to-port="1" />
		<edge from-layer="290" from-port="2" to-layer="293" to-port="0" />
		<edge from-layer="291" from-port="0" to-layer="292" to-port="0" />
		<edge from-layer="292" from-port="1" to-layer="293" to-port="1" />
		<edge from-layer="293" from-port="2" to-layer="294" to-port="0" />
		<edge from-layer="294" from-port="1" to-layer="297" to-port="0" />
		<edge from-layer="295" from-port="0" to-layer="296" to-port="0" />
		<edge from-layer="296" from-port="1" to-layer="297" to-port="1" />
		<edge from-layer="297" from-port="2" to-layer="300" to-port="0" />
		<edge from-layer="298" from-port="0" to-layer="299" to-port="0" />
		<edge from-layer="299" from-port="1" to-layer="300" to-port="1" />
		<edge from-layer="300" from-port="2" to-layer="301" to-port="0" />
		<edge from-layer="301" from-port="1" to-layer="303" to-port="0" />
		<edge from-layer="302" from-port="0" to-layer="303" to-port="1" />
		<edge from-layer="303" from-port="2" to-layer="304" to-port="1" />
		<edge from-layer="304" from-port="2" to-layer="305" to-port="0" />
		<edge from-layer="305" from-port="1" to-layer="308" to-port="0" />
		<edge from-layer="306" from-port="0" to-layer="307" to-port="0" />
		<edge from-layer="307" from-port="1" to-layer="308" to-port="1" />
		<edge from-layer="308" from-port="2" to-layer="311" to-port="0" />
		<edge from-layer="309" from-port="0" to-layer="310" to-port="0" />
		<edge from-layer="310" from-port="1" to-layer="311" to-port="1" />
		<edge from-layer="311" from-port="2" to-layer="314" to-port="0" />
		<edge from-layer="311" from-port="2" to-layer="353" to-port="0" />
		<edge from-layer="312" from-port="0" to-layer="313" to-port="0" />
		<edge from-layer="313" from-port="1" to-layer="314" to-port="1" />
		<edge from-layer="314" from-port="2" to-layer="317" to-port="0" />
		<edge from-layer="315" from-port="0" to-layer="316" to-port="0" />
		<edge from-layer="316" from-port="1" to-layer="317" to-port="1" />
		<edge from-layer="317" from-port="2" to-layer="318" to-port="0" />
		<edge from-layer="318" from-port="1" to-layer="321" to-port="0" />
		<edge from-layer="319" from-port="0" to-layer="320" to-port="0" />
		<edge from-layer="320" from-port="1" to-layer="321" to-port="1" />
		<edge from-layer="321" from-port="2" to-layer="324" to-port="0" />
		<edge from-layer="322" from-port="0" to-layer="323" to-port="0" />
		<edge from-layer="323" from-port="1" to-layer="324" to-port="1" />
		<edge from-layer="324" from-port="2" to-layer="326" to-port="0" />
		<edge from-layer="324" from-port="2" to-layer="345" to-port="0" />
		<edge from-layer="325" from-port="0" to-layer="326" to-port="1" />
		<edge from-layer="326" from-port="2" to-layer="328" to-port="0" />
		<edge from-layer="327" from-port="0" to-layer="328" to-port="1" />
		<edge from-layer="328" from-port="2" to-layer="331" to-port="0" />
		<edge from-layer="329" from-port="0" to-layer="330" to-port="0" />
		<edge from-layer="330" from-port="1" to-layer="331" to-port="1" />
		<edge from-layer="331" from-port="2" to-layer="334" to-port="0" />
		<edge from-layer="332" from-port="0" to-layer="333" to-port="0" />
		<edge from-layer="333" from-port="1" to-layer="334" to-port="1" />
		<edge from-layer="334" from-port="2" to-layer="335" to-port="0" />
		<edge from-layer="335" from-port="1" to-layer="338" to-port="0" />
		<edge from-layer="336" from-port="0" to-layer="337" to-port="0" />
		<edge from-layer="337" from-port="1" to-layer="338" to-port="1" />
		<edge from-layer="338" from-port="2" to-layer="341" to-port="0" />
		<edge from-layer="339" from-port="0" to-layer="340" to-port="0" />
		<edge from-layer="340" from-port="1" to-layer="341" to-port="1" />
		<edge from-layer="341" from-port="2" to-layer="342" to-port="0" />
		<edge from-layer="342" from-port="1" to-layer="344" to-port="0" />
		<edge from-layer="343" from-port="0" to-layer="344" to-port="1" />
		<edge from-layer="344" from-port="2" to-layer="345" to-port="1" />
		<edge from-layer="345" from-port="2" to-layer="346" to-port="0" />
		<edge from-layer="346" from-port="1" to-layer="349" to-port="0" />
		<edge from-layer="347" from-port="0" to-layer="348" to-port="0" />
		<edge from-layer="348" from-port="1" to-layer="349" to-port="1" />
		<edge from-layer="349" from-port="2" to-layer="352" to-port="0" />
		<edge from-layer="350" from-port="0" to-layer="351" to-port="0" />
		<edge from-layer="351" from-port="1" to-layer="352" to-port="1" />
		<edge from-layer="352" from-port="2" to-layer="353" to-port="1" />
		<edge from-layer="353" from-port="2" to-layer="356" to-port="0" />
		<edge from-layer="354" from-port="0" to-layer="355" to-port="0" />
		<edge from-layer="355" from-port="1" to-layer="356" to-port="1" />
		<edge from-layer="356" from-port="2" to-layer="359" to-port="0" />
		<edge from-layer="357" from-port="0" to-layer="358" to-port="0" />
		<edge from-layer="358" from-port="1" to-layer="359" to-port="1" />
		<edge from-layer="359" from-port="2" to-layer="360" to-port="0" />
		<edge from-layer="360" from-port="1" to-layer="363" to-port="0" />
		<edge from-layer="361" from-port="0" to-layer="362" to-port="0" />
		<edge from-layer="362" from-port="1" to-layer="363" to-port="1" />
		<edge from-layer="363" from-port="2" to-layer="366" to-port="0" />
		<edge from-layer="364" from-port="0" to-layer="365" to-port="0" />
		<edge from-layer="365" from-port="1" to-layer="366" to-port="1" />
		<edge from-layer="366" from-port="2" to-layer="368" to-port="0" />
		<edge from-layer="366" from-port="2" to-layer="387" to-port="0" />
		<edge from-layer="367" from-port="0" to-layer="368" to-port="1" />
		<edge from-layer="368" from-port="2" to-layer="370" to-port="0" />
		<edge from-layer="369" from-port="0" to-layer="370" to-port="1" />
		<edge from-layer="370" from-port="2" to-layer="373" to-port="0" />
		<edge from-layer="371" from-port="0" to-layer="372" to-port="0" />
		<edge from-layer="372" from-port="1" to-layer="373" to-port="1" />
		<edge from-layer="373" from-port="2" to-layer="376" to-port="0" />
		<edge from-layer="374" from-port="0" to-layer="375" to-port="0" />
		<edge from-layer="375" from-port="1" to-layer="376" to-port="1" />
		<edge from-layer="376" from-port="2" to-layer="377" to-port="0" />
		<edge from-layer="377" from-port="1" to-layer="380" to-port="0" />
		<edge from-layer="378" from-port="0" to-layer="379" to-port="0" />
		<edge from-layer="379" from-port="1" to-layer="380" to-port="1" />
		<edge from-layer="380" from-port="2" to-layer="383" to-port="0" />
		<edge from-layer="381" from-port="0" to-layer="382" to-port="0" />
		<edge from-layer="382" from-port="1" to-layer="383" to-port="1" />
		<edge from-layer="383" from-port="2" to-layer="384" to-port="0" />
		<edge from-layer="384" from-port="1" to-layer="386" to-port="0" />
		<edge from-layer="385" from-port="0" to-layer="386" to-port="1" />
		<edge from-layer="386" from-port="2" to-layer="387" to-port="1" />
		<edge from-layer="387" from-port="2" to-layer="388" to-port="0" />
		<edge from-layer="388" from-port="1" to-layer="391" to-port="0" />
		<edge from-layer="389" from-port="0" to-layer="390" to-port="0" />
		<edge from-layer="390" from-port="1" to-layer="391" to-port="1" />
		<edge from-layer="391" from-port="2" to-layer="394" to-port="0" />
		<edge from-layer="392" from-port="0" to-layer="393" to-port="0" />
		<edge from-layer="393" from-port="1" to-layer="394" to-port="1" />
		<edge from-layer="394" from-port="2" to-layer="436" to-port="0" />
		<edge from-layer="394" from-port="2" to-layer="397" to-port="0" />
		<edge from-layer="395" from-port="0" to-layer="396" to-port="0" />
		<edge from-layer="396" from-port="1" to-layer="397" to-port="1" />
		<edge from-layer="397" from-port="2" to-layer="400" to-port="0" />
		<edge from-layer="398" from-port="0" to-layer="399" to-port="0" />
		<edge from-layer="399" from-port="1" to-layer="400" to-port="1" />
		<edge from-layer="400" from-port="2" to-layer="401" to-port="0" />
		<edge from-layer="401" from-port="1" to-layer="404" to-port="0" />
		<edge from-layer="402" from-port="0" to-layer="403" to-port="0" />
		<edge from-layer="403" from-port="1" to-layer="404" to-port="1" />
		<edge from-layer="404" from-port="2" to-layer="407" to-port="0" />
		<edge from-layer="405" from-port="0" to-layer="406" to-port="0" />
		<edge from-layer="406" from-port="1" to-layer="407" to-port="1" />
		<edge from-layer="407" from-port="2" to-layer="409" to-port="0" />
		<edge from-layer="407" from-port="2" to-layer="428" to-port="0" />
		<edge from-layer="408" from-port="0" to-layer="409" to-port="1" />
		<edge from-layer="409" from-port="2" to-layer="411" to-port="0" />
		<edge from-layer="410" from-port="0" to-layer="411" to-port="1" />
		<edge from-layer="411" from-port="2" to-layer="414" to-port="0" />
		<edge from-layer="412" from-port="0" to-layer="413" to-port="0" />
		<edge from-layer="413" from-port="1" to-layer="414" to-port="1" />
		<edge from-layer="414" from-port="2" to-layer="417" to-port="0" />
		<edge from-layer="415" from-port="0" to-layer="416" to-port="0" />
		<edge from-layer="416" from-port="1" to-layer="417" to-port="1" />
		<edge from-layer="417" from-port="2" to-layer="418" to-port="0" />
		<edge from-layer="418" from-port="1" to-layer="421" to-port="0" />
		<edge from-layer="419" from-port="0" to-layer="420" to-port="0" />
		<edge from-layer="420" from-port="1" to-layer="421" to-port="1" />
		<edge from-layer="421" from-port="2" to-layer="424" to-port="0" />
		<edge from-layer="422" from-port="0" to-layer="423" to-port="0" />
		<edge from-layer="423" from-port="1" to-layer="424" to-port="1" />
		<edge from-layer="424" from-port="2" to-layer="425" to-port="0" />
		<edge from-layer="425" from-port="1" to-layer="427" to-port="0" />
		<edge from-layer="426" from-port="0" to-layer="427" to-port="1" />
		<edge from-layer="427" from-port="2" to-layer="428" to-port="1" />
		<edge from-layer="428" from-port="2" to-layer="429" to-port="0" />
		<edge from-layer="429" from-port="1" to-layer="432" to-port="0" />
		<edge from-layer="430" from-port="0" to-layer="431" to-port="0" />
		<edge from-layer="431" from-port="1" to-layer="432" to-port="1" />
		<edge from-layer="432" from-port="2" to-layer="435" to-port="0" />
		<edge from-layer="433" from-port="0" to-layer="434" to-port="0" />
		<edge from-layer="434" from-port="1" to-layer="435" to-port="1" />
		<edge from-layer="435" from-port="2" to-layer="436" to-port="1" />
		<edge from-layer="436" from-port="2" to-layer="439" to-port="0" />
		<edge from-layer="436" from-port="2" to-layer="478" to-port="0" />
		<edge from-layer="437" from-port="0" to-layer="438" to-port="0" />
		<edge from-layer="438" from-port="1" to-layer="439" to-port="1" />
		<edge from-layer="439" from-port="2" to-layer="442" to-port="0" />
		<edge from-layer="440" from-port="0" to-layer="441" to-port="0" />
		<edge from-layer="441" from-port="1" to-layer="442" to-port="1" />
		<edge from-layer="442" from-port="2" to-layer="443" to-port="0" />
		<edge from-layer="443" from-port="1" to-layer="446" to-port="0" />
		<edge from-layer="444" from-port="0" to-layer="445" to-port="0" />
		<edge from-layer="445" from-port="1" to-layer="446" to-port="1" />
		<edge from-layer="446" from-port="2" to-layer="449" to-port="0" />
		<edge from-layer="447" from-port="0" to-layer="448" to-port="0" />
		<edge from-layer="448" from-port="1" to-layer="449" to-port="1" />
		<edge from-layer="449" from-port="2" to-layer="451" to-port="0" />
		<edge from-layer="449" from-port="2" to-layer="470" to-port="0" />
		<edge from-layer="450" from-port="0" to-layer="451" to-port="1" />
		<edge from-layer="451" from-port="2" to-layer="453" to-port="0" />
		<edge from-layer="452" from-port="0" to-layer="453" to-port="1" />
		<edge from-layer="453" from-port="2" to-layer="456" to-port="0" />
		<edge from-layer="454" from-port="0" to-layer="455" to-port="0" />
		<edge from-layer="455" from-port="1" to-layer="456" to-port="1" />
		<edge from-layer="456" from-port="2" to-layer="459" to-port="0" />
		<edge from-layer="457" from-port="0" to-layer="458" to-port="0" />
		<edge from-layer="458" from-port="1" to-layer="459" to-port="1" />
		<edge from-layer="459" from-port="2" to-layer="460" to-port="0" />
		<edge from-layer="460" from-port="1" to-layer="463" to-port="0" />
		<edge from-layer="461" from-port="0" to-layer="462" to-port="0" />
		<edge from-layer="462" from-port="1" to-layer="463" to-port="1" />
		<edge from-layer="463" from-port="2" to-layer="466" to-port="0" />
		<edge from-layer="464" from-port="0" to-layer="465" to-port="0" />
		<edge from-layer="465" from-port="1" to-layer="466" to-port="1" />
		<edge from-layer="466" from-port="2" to-layer="467" to-port="0" />
		<edge from-layer="467" from-port="1" to-layer="469" to-port="0" />
		<edge from-layer="468" from-port="0" to-layer="469" to-port="1" />
		<edge from-layer="469" from-port="2" to-layer="470" to-port="1" />
		<edge from-layer="470" from-port="2" to-layer="471" to-port="0" />
		<edge from-layer="471" from-port="1" to-layer="474" to-port="0" />
		<edge from-layer="472" from-port="0" to-layer="473" to-port="0" />
		<edge from-layer="473" from-port="1" to-layer="474" to-port="1" />
		<edge from-layer="474" from-port="2" to-layer="477" to-port="0" />
		<edge from-layer="475" from-port="0" to-layer="476" to-port="0" />
		<edge from-layer="476" from-port="1" to-layer="477" to-port="1" />
		<edge from-layer="477" from-port="2" to-layer="478" to-port="1" />
		<edge from-layer="478" from-port="2" to-layer="481" to-port="0" />
		<edge from-layer="479" from-port="0" to-layer="480" to-port="0" />
		<edge from-layer="480" from-port="1" to-layer="481" to-port="1" />
		<edge from-layer="481" from-port="2" to-layer="484" to-port="0" />
		<edge from-layer="482" from-port="0" to-layer="483" to-port="0" />
		<edge from-layer="483" from-port="1" to-layer="484" to-port="1" />
		<edge from-layer="484" from-port="2" to-layer="485" to-port="0" />
		<edge from-layer="485" from-port="1" to-layer="487" to-port="0" />
		<edge from-layer="486" from-port="0" to-layer="487" to-port="1" />
		<edge from-layer="487" from-port="2" to-layer="489" to-port="0" />
		<edge from-layer="488" from-port="0" to-layer="489" to-port="1" />
		<edge from-layer="489" from-port="2" to-layer="492" to-port="0" />
		<edge from-layer="490" from-port="0" to-layer="491" to-port="0" />
		<edge from-layer="491" from-port="1" to-layer="492" to-port="1" />
		<edge from-layer="492" from-port="2" to-layer="495" to-port="0" />
		<edge from-layer="493" from-port="0" to-layer="494" to-port="0" />
		<edge from-layer="494" from-port="1" to-layer="495" to-port="1" />
		<edge from-layer="495" from-port="2" to-layer="496" to-port="0" />
		<edge from-layer="496" from-port="1" to-layer="499" to-port="0" />
		<edge from-layer="497" from-port="0" to-layer="498" to-port="0" />
		<edge from-layer="498" from-port="1" to-layer="499" to-port="1" />
		<edge from-layer="499" from-port="2" to-layer="502" to-port="0" />
		<edge from-layer="500" from-port="0" to-layer="501" to-port="0" />
		<edge from-layer="501" from-port="1" to-layer="502" to-port="1" />
		<edge from-layer="502" from-port="2" to-layer="504" to-port="0" />
		<edge from-layer="503" from-port="0" to-layer="504" to-port="1" />
		<edge from-layer="504" from-port="2" to-layer="505" to-port="0" />
		<edge from-layer="505" from-port="1" to-layer="507" to-port="0" />
		<edge from-layer="506" from-port="0" to-layer="507" to-port="1" />
		<edge from-layer="507" from-port="2" to-layer="508" to-port="0" />
	</edges>
	<rt_info>
		<Runtime_version value="2024.6.0-17404-4c0f47d2335-releases/2024/6" />
		<conversion_parameters>
			<is_python_object value="False" />
			<output_model value=".\App_Data\models\openvino\anti-spoof-mn3.xml" />
		</conversion_parameters>
	</rt_info>
</net>
